{"format": "graph-model", "generatedBy": "1.15.4", "convertedBy": "TensorFlow.js Converter v2.7.0", "userDefinedMetadata": {"signature": {"inputs": {"Image:0": {"name": "Image:0", "dtype": "DT_FLOAT", "tensorShape": {"dim": [{"size": "-1"}, {"size": "224"}, {"size": "224"}, {"size": "3"}]}}}, "outputs": {"fe4d1316-672f-4c72-832b-ffdd80bf4fc7.6e7b0a42-81f8-46db-ab95-2704e01478a5/dense_2/Softmax:0": {"name": "fe4d1316-672f-4c72-832b-ffdd80bf4fc7.6e7b0a42-81f8-46db-ab95-2704e01478a5/dense_2/Softmax:0", "dtype": "DT_FLOAT", "tensorShape": {"dim": [{"size": "-1"}, {"size": "2"}]}}}}}, "modelTopology": {"node": [{"name": "Image", "op": "Placeholder", "attr": {"shape": {"shape": {"dim": [{"size": "-1"}, {"size": "224"}, {"size": "224"}, {"size": "3"}]}}, "dtype": {"type": "DT_FLOAT"}}}, {"name": "conv1_conv/kernel", "op": "Const", "attr": {"value": {"tensor": {"dtype": "DT_FLOAT", "tensorShape": {"dim": [{"size": "7"}, {"size": "7"}, {"size": "3"}, {"size": "64"}]}}}, "dtype": {"type": "DT_FLOAT"}}}, {"name": "dense/bias", "op": "Const", "attr": {"value": {"tensor": {"dtype": "DT_FLOAT", "tensorShape": {"dim": [{"size": "1024"}]}}}, "dtype": {"type": "DT_FLOAT"}}}, {"name": "conv1_conv/bias", "op": "Const", "attr": {"value": {"tensor": {"dtype": "DT_FLOAT", "tensorShape": {"dim": [{"size": "64"}]}}}, "dtype": {"type": "DT_FLOAT"}}}, {"name": "dense_1/kernel", "op": "Const", "attr": {"value": {"tensor": {"dtype": "DT_FLOAT", "tensorShape": {"dim": [{"size": "1024"}, {"size": "512"}]}}}, "dtype": {"type": "DT_FLOAT"}}}, {"name": "conv5_block3_3_conv/kernel", "op": "Const", "attr": {"value": {"tensor": {"dtype": "DT_FLOAT", "tensorShape": {"dim": [{"size": "1"}, {"size": "1"}, {"size": "512"}, {"size": "2048"}]}}}, "dtype": {"type": "DT_FLOAT"}}}, {"name": "dense_2/bias", "op": "Const", "attr": {"value": {"tensor": {"dtype": "DT_FLOAT", "tensorShape": {"dim": [{"size": "2"}]}}}, "dtype": {"type": "DT_FLOAT"}}}, {"name": "conv5_block3_3_conv/bias", "op": "Const", "attr": {"value": {"tensor": {"dtype": "DT_FLOAT", "tensorShape": {"dim": [{"size": "2048"}]}}}, "dtype": {"type": "DT_FLOAT"}}}, {"name": "dense_1/bias", "op": "Const", "attr": {"value": {"tensor": {"dtype": "DT_FLOAT", "tensorShape": {"dim": [{"size": "512"}]}}}, "dtype": {"type": "DT_FLOAT"}}}, {"name": "conv2_block1_0_conv/kernel", "op": "Const", "attr": {"value": {"tensor": {"dtype": "DT_FLOAT", "tensorShape": {"dim": [{"size": "1"}, {"size": "1"}, {"size": "64"}, {"size": "256"}]}}}, "dtype": {"type": "DT_FLOAT"}}}, {"name": "conv2_block1_0_conv/bias", "op": "Const", "attr": {"value": {"tensor": {"dtype": "DT_FLOAT", "tensorShape": {"dim": [{"size": "256"}]}}}, "dtype": {"type": "DT_FLOAT"}}}, {"name": "conv2_block1_3_conv/kernel", "op": "Const", "attr": {"value": {"tensor": {"dtype": "DT_FLOAT", "tensorShape": {"dim": [{"size": "1"}, {"size": "1"}, {"size": "64"}, {"size": "256"}]}}}, "dtype": {"type": "DT_FLOAT"}}}, {"name": "conv2_block1_3_conv/bias", "op": "Const", "attr": {"value": {"tensor": {"dtype": "DT_FLOAT", "tensorShape": {"dim": [{"size": "256"}]}}}, "dtype": {"type": "DT_FLOAT"}}}, {"name": "saved_resnet_50_model/tf_op_layer_Mul/Mul/y", "op": "Const", "attr": {"value": {"tensor": {"dtype": "DT_FLOAT", "tensorShape": {}}}, "dtype": {"type": "DT_FLOAT"}}}, {"name": "saved_resnet_50_model/tf_op_layer_Sub/Sub/y", "op": "Const", "attr": {"value": {"tensor": {"dtype": "DT_FLOAT", "tensorShape": {}}}, "dtype": {"type": "DT_FLOAT"}}}, {"name": "saved_resnet_50_model/resnet50v2/conv5_block3_preact_bn/FusedBatchNormV3/Offset", "op": "Const", "attr": {"value": {"tensor": {"dtype": "DT_FLOAT", "tensorShape": {"dim": [{"size": "2048"}]}}}, "dtype": {"type": "DT_FLOAT"}}}, {"name": "saved_resnet_50_model/resnet50v2/pool1_pad/Pad/paddings", "op": "Const", "attr": {"value": {"tensor": {"dtype": "DT_INT32", "tensorShape": {"dim": [{"size": "4"}, {"size": "2"}]}}}, "dtype": {"type": "DT_INT32"}}}, {"name": "conv2_block2_3_conv/kernel", "op": "Const", "attr": {"value": {"tensor": {"dtype": "DT_FLOAT", "tensorShape": {"dim": [{"size": "1"}, {"size": "1"}, {"size": "64"}, {"size": "256"}]}}}, "dtype": {"type": "DT_FLOAT"}}}, {"name": "conv2_block2_3_conv/bias", "op": "Const", "attr": {"value": {"tensor": {"dtype": "DT_FLOAT", "tensorShape": {"dim": [{"size": "256"}]}}}, "dtype": {"type": "DT_FLOAT"}}}, {"name": "conv2_block3_3_conv/kernel", "op": "Const", "attr": {"value": {"tensor": {"dtype": "DT_FLOAT", "tensorShape": {"dim": [{"size": "1"}, {"size": "1"}, {"size": "64"}, {"size": "256"}]}}}, "dtype": {"type": "DT_FLOAT"}}}, {"name": "conv2_block3_3_conv/bias", "op": "Const", "attr": {"value": {"tensor": {"dtype": "DT_FLOAT", "tensorShape": {"dim": [{"size": "256"}]}}}, "dtype": {"type": "DT_FLOAT"}}}, {"name": "conv3_block1_0_conv/kernel", "op": "Const", "attr": {"value": {"tensor": {"dtype": "DT_FLOAT", "tensorShape": {"dim": [{"size": "1"}, {"size": "1"}, {"size": "256"}, {"size": "512"}]}}}, "dtype": {"type": "DT_FLOAT"}}}, {"name": "conv3_block1_0_conv/bias", "op": "Const", "attr": {"value": {"tensor": {"dtype": "DT_FLOAT", "tensorShape": {"dim": [{"size": "512"}]}}}, "dtype": {"type": "DT_FLOAT"}}}, {"name": "conv3_block1_3_conv/kernel", "op": "Const", "attr": {"value": {"tensor": {"dtype": "DT_FLOAT", "tensorShape": {"dim": [{"size": "1"}, {"size": "1"}, {"size": "128"}, {"size": "512"}]}}}, "dtype": {"type": "DT_FLOAT"}}}, {"name": "conv3_block1_3_conv/bias", "op": "Const", "attr": {"value": {"tensor": {"dtype": "DT_FLOAT", "tensorShape": {"dim": [{"size": "512"}]}}}, "dtype": {"type": "DT_FLOAT"}}}, {"name": "conv3_block2_3_conv/kernel", "op": "Const", "attr": {"value": {"tensor": {"dtype": "DT_FLOAT", "tensorShape": {"dim": [{"size": "1"}, {"size": "1"}, {"size": "128"}, {"size": "512"}]}}}, "dtype": {"type": "DT_FLOAT"}}}, {"name": "conv3_block2_3_conv/bias", "op": "Const", "attr": {"value": {"tensor": {"dtype": "DT_FLOAT", "tensorShape": {"dim": [{"size": "512"}]}}}, "dtype": {"type": "DT_FLOAT"}}}, {"name": "conv3_block3_3_conv/kernel", "op": "Const", "attr": {"value": {"tensor": {"dtype": "DT_FLOAT", "tensorShape": {"dim": [{"size": "1"}, {"size": "1"}, {"size": "128"}, {"size": "512"}]}}}, "dtype": {"type": "DT_FLOAT"}}}, {"name": "conv3_block3_3_conv/bias", "op": "Const", "attr": {"value": {"tensor": {"dtype": "DT_FLOAT", "tensorShape": {"dim": [{"size": "512"}]}}}, "dtype": {"type": "DT_FLOAT"}}}, {"name": "conv3_block4_3_conv/kernel", "op": "Const", "attr": {"value": {"tensor": {"dtype": "DT_FLOAT", "tensorShape": {"dim": [{"size": "1"}, {"size": "1"}, {"size": "128"}, {"size": "512"}]}}}, "dtype": {"type": "DT_FLOAT"}}}, {"name": "conv3_block4_3_conv/bias", "op": "Const", "attr": {"value": {"tensor": {"dtype": "DT_FLOAT", "tensorShape": {"dim": [{"size": "512"}]}}}, "dtype": {"type": "DT_FLOAT"}}}, {"name": "conv4_block1_0_conv/kernel", "op": "Const", "attr": {"value": {"tensor": {"dtype": "DT_FLOAT", "tensorShape": {"dim": [{"size": "1"}, {"size": "1"}, {"size": "512"}, {"size": "1024"}]}}}, "dtype": {"type": "DT_FLOAT"}}}, {"name": "conv4_block1_0_conv/bias", "op": "Const", "attr": {"value": {"tensor": {"dtype": "DT_FLOAT", "tensorShape": {"dim": [{"size": "1024"}]}}}, "dtype": {"type": "DT_FLOAT"}}}, {"name": "conv4_block1_3_conv/kernel", "op": "Const", "attr": {"value": {"tensor": {"dtype": "DT_FLOAT", "tensorShape": {"dim": [{"size": "1"}, {"size": "1"}, {"size": "256"}, {"size": "1024"}]}}}, "dtype": {"type": "DT_FLOAT"}}}, {"name": "conv4_block1_3_conv/bias", "op": "Const", "attr": {"value": {"tensor": {"dtype": "DT_FLOAT", "tensorShape": {"dim": [{"size": "1024"}]}}}, "dtype": {"type": "DT_FLOAT"}}}, {"name": "conv4_block2_3_conv/kernel", "op": "Const", "attr": {"value": {"tensor": {"dtype": "DT_FLOAT", "tensorShape": {"dim": [{"size": "1"}, {"size": "1"}, {"size": "256"}, {"size": "1024"}]}}}, "dtype": {"type": "DT_FLOAT"}}}, {"name": "conv4_block2_3_conv/bias", "op": "Const", "attr": {"value": {"tensor": {"dtype": "DT_FLOAT", "tensorShape": {"dim": [{"size": "1024"}]}}}, "dtype": {"type": "DT_FLOAT"}}}, {"name": "conv4_block3_3_conv/kernel", "op": "Const", "attr": {"value": {"tensor": {"dtype": "DT_FLOAT", "tensorShape": {"dim": [{"size": "1"}, {"size": "1"}, {"size": "256"}, {"size": "1024"}]}}}, "dtype": {"type": "DT_FLOAT"}}}, {"name": "conv4_block3_3_conv/bias", "op": "Const", "attr": {"value": {"tensor": {"dtype": "DT_FLOAT", "tensorShape": {"dim": [{"size": "1024"}]}}}, "dtype": {"type": "DT_FLOAT"}}}, {"name": "conv4_block4_3_conv/kernel", "op": "Const", "attr": {"value": {"tensor": {"dtype": "DT_FLOAT", "tensorShape": {"dim": [{"size": "1"}, {"size": "1"}, {"size": "256"}, {"size": "1024"}]}}}, "dtype": {"type": "DT_FLOAT"}}}, {"name": "conv4_block4_3_conv/bias", "op": "Const", "attr": {"value": {"tensor": {"dtype": "DT_FLOAT", "tensorShape": {"dim": [{"size": "1024"}]}}}, "dtype": {"type": "DT_FLOAT"}}}, {"name": "conv4_block5_3_conv/kernel", "op": "Const", "attr": {"value": {"tensor": {"dtype": "DT_FLOAT", "tensorShape": {"dim": [{"size": "1"}, {"size": "1"}, {"size": "256"}, {"size": "1024"}]}}}, "dtype": {"type": "DT_FLOAT"}}}, {"name": "conv4_block5_3_conv/bias", "op": "Const", "attr": {"value": {"tensor": {"dtype": "DT_FLOAT", "tensorShape": {"dim": [{"size": "1024"}]}}}, "dtype": {"type": "DT_FLOAT"}}}, {"name": "conv4_block6_3_conv/kernel", "op": "Const", "attr": {"value": {"tensor": {"dtype": "DT_FLOAT", "tensorShape": {"dim": [{"size": "1"}, {"size": "1"}, {"size": "256"}, {"size": "1024"}]}}}, "dtype": {"type": "DT_FLOAT"}}}, {"name": "conv4_block6_3_conv/bias", "op": "Const", "attr": {"value": {"tensor": {"dtype": "DT_FLOAT", "tensorShape": {"dim": [{"size": "1024"}]}}}, "dtype": {"type": "DT_FLOAT"}}}, {"name": "conv5_block1_0_conv/kernel", "op": "Const", "attr": {"value": {"tensor": {"dtype": "DT_FLOAT", "tensorShape": {"dim": [{"size": "1"}, {"size": "1"}, {"size": "1024"}, {"size": "2048"}]}}}, "dtype": {"type": "DT_FLOAT"}}}, {"name": "conv5_block1_0_conv/bias", "op": "Const", "attr": {"value": {"tensor": {"dtype": "DT_FLOAT", "tensorShape": {"dim": [{"size": "2048"}]}}}, "dtype": {"type": "DT_FLOAT"}}}, {"name": "conv5_block1_3_conv/kernel", "op": "Const", "attr": {"value": {"tensor": {"dtype": "DT_FLOAT", "tensorShape": {"dim": [{"size": "1"}, {"size": "1"}, {"size": "512"}, {"size": "2048"}]}}}, "dtype": {"type": "DT_FLOAT"}}}, {"name": "conv5_block1_3_conv/bias", "op": "Const", "attr": {"value": {"tensor": {"dtype": "DT_FLOAT", "tensorShape": {"dim": [{"size": "2048"}]}}}, "dtype": {"type": "DT_FLOAT"}}}, {"name": "conv5_block2_3_conv/kernel", "op": "Const", "attr": {"value": {"tensor": {"dtype": "DT_FLOAT", "tensorShape": {"dim": [{"size": "1"}, {"size": "1"}, {"size": "512"}, {"size": "2048"}]}}}, "dtype": {"type": "DT_FLOAT"}}}, {"name": "conv5_block2_3_conv/bias", "op": "Const", "attr": {"value": {"tensor": {"dtype": "DT_FLOAT", "tensorShape": {"dim": [{"size": "2048"}]}}}, "dtype": {"type": "DT_FLOAT"}}}, {"name": "saved_resnet_50_model/resnet50v2/avg_pool/Mean/reduction_indices", "op": "Const", "attr": {"value": {"tensor": {"dtype": "DT_INT32", "tensorShape": {"dim": [{"size": "2"}]}}}, "dtype": {"type": "DT_INT32"}}}, {"name": "dense_2/kernel", "op": "Const", "attr": {"value": {"tensor": {"dtype": "DT_FLOAT", "tensorShape": {"dim": [{"size": "512"}, {"size": "2"}]}}}, "dtype": {"type": "DT_FLOAT"}}}, {"name": "dense/kernel", "op": "Const", "attr": {"value": {"tensor": {"dtype": "DT_FLOAT", "tensorShape": {"dim": [{"size": "2048"}, {"size": "1024"}]}}}, "dtype": {"type": "DT_FLOAT"}}}, {"name": "saved_resnet_50_model/resnet50v2/conv2_block1_1_conv/Conv2D_weights", "op": "Const", "attr": {"value": {"tensor": {"dtype": "DT_FLOAT", "tensorShape": {"dim": [{"size": "1"}, {"size": "1"}, {"size": "64"}, {"size": "64"}]}}}, "dtype": {"type": "DT_FLOAT"}}}, {"name": "saved_resnet_50_model/resnet50v2/conv2_block1_1_conv/Conv2D_bn_offset", "op": "Const", "attr": {"value": {"tensor": {"dtype": "DT_FLOAT", "tensorShape": {"dim": [{"size": "64"}]}}}, "dtype": {"type": "DT_FLOAT"}}}, {"name": "saved_resnet_50_model/resnet50v2/conv5_block2_preact_bn/FusedBatchNormV3/Scaled", "op": "Const", "attr": {"value": {"tensor": {"dtype": "DT_FLOAT", "tensorShape": {"dim": [{"size": "2048"}]}}}, "dtype": {"type": "DT_FLOAT"}}}, {"name": "saved_resnet_50_model/resnet50v2/conv2_block1_2_conv/Conv2D_weights", "op": "Const", "attr": {"value": {"tensor": {"dtype": "DT_FLOAT", "tensorShape": {"dim": [{"size": "3"}, {"size": "3"}, {"size": "64"}, {"size": "64"}]}}}, "dtype": {"type": "DT_FLOAT"}}}, {"name": "saved_resnet_50_model/resnet50v2/conv2_block1_2_conv/Conv2D_bn_offset", "op": "Const", "attr": {"value": {"tensor": {"dtype": "DT_FLOAT", "tensorShape": {"dim": [{"size": "64"}]}}}, "dtype": {"type": "DT_FLOAT"}}}, {"name": "saved_resnet_50_model/resnet50v2/conv5_block2_preact_bn/FusedBatchNormV3/Offset", "op": "Const", "attr": {"value": {"tensor": {"dtype": "DT_FLOAT", "tensorShape": {"dim": [{"size": "2048"}]}}}, "dtype": {"type": "DT_FLOAT"}}}, {"name": "saved_resnet_50_model/resnet50v2/conv2_block2_1_conv/Conv2D_weights", "op": "Const", "attr": {"value": {"tensor": {"dtype": "DT_FLOAT", "tensorShape": {"dim": [{"size": "1"}, {"size": "1"}, {"size": "256"}, {"size": "64"}]}}}, "dtype": {"type": "DT_FLOAT"}}}, {"name": "saved_resnet_50_model/resnet50v2/conv2_block2_1_conv/Conv2D_bn_offset", "op": "Const", "attr": {"value": {"tensor": {"dtype": "DT_FLOAT", "tensorShape": {"dim": [{"size": "64"}]}}}, "dtype": {"type": "DT_FLOAT"}}}, {"name": "saved_resnet_50_model/resnet50v2/conv2_block2_2_conv/Conv2D_weights", "op": "Const", "attr": {"value": {"tensor": {"dtype": "DT_FLOAT", "tensorShape": {"dim": [{"size": "3"}, {"size": "3"}, {"size": "64"}, {"size": "64"}]}}}, "dtype": {"type": "DT_FLOAT"}}}, {"name": "saved_resnet_50_model/resnet50v2/conv5_block1_preact_bn/FusedBatchNormV3/Scaled", "op": "Const", "attr": {"value": {"tensor": {"dtype": "DT_FLOAT", "tensorShape": {"dim": [{"size": "1024"}]}}}, "dtype": {"type": "DT_FLOAT"}}}, {"name": "saved_resnet_50_model/resnet50v2/conv2_block2_2_conv/Conv2D_bn_offset", "op": "Const", "attr": {"value": {"tensor": {"dtype": "DT_FLOAT", "tensorShape": {"dim": [{"size": "64"}]}}}, "dtype": {"type": "DT_FLOAT"}}}, {"name": "saved_resnet_50_model/resnet50v2/conv2_block3_1_conv/Conv2D_weights", "op": "Const", "attr": {"value": {"tensor": {"dtype": "DT_FLOAT", "tensorShape": {"dim": [{"size": "1"}, {"size": "1"}, {"size": "256"}, {"size": "64"}]}}}, "dtype": {"type": "DT_FLOAT"}}}, {"name": "saved_resnet_50_model/resnet50v2/conv5_block1_preact_bn/FusedBatchNormV3/Offset", "op": "Const", "attr": {"value": {"tensor": {"dtype": "DT_FLOAT", "tensorShape": {"dim": [{"size": "1024"}]}}}, "dtype": {"type": "DT_FLOAT"}}}, {"name": "saved_resnet_50_model/resnet50v2/conv2_block3_1_conv/Conv2D_bn_offset", "op": "Const", "attr": {"value": {"tensor": {"dtype": "DT_FLOAT", "tensorShape": {"dim": [{"size": "64"}]}}}, "dtype": {"type": "DT_FLOAT"}}}, {"name": "saved_resnet_50_model/resnet50v2/conv2_block3_2_conv/Conv2D_weights", "op": "Const", "attr": {"value": {"tensor": {"dtype": "DT_FLOAT", "tensorShape": {"dim": [{"size": "3"}, {"size": "3"}, {"size": "64"}, {"size": "64"}]}}}, "dtype": {"type": "DT_FLOAT"}}}, {"name": "saved_resnet_50_model/resnet50v2/conv2_block3_2_conv/Conv2D_bn_offset", "op": "Const", "attr": {"value": {"tensor": {"dtype": "DT_FLOAT", "tensorShape": {"dim": [{"size": "64"}]}}}, "dtype": {"type": "DT_FLOAT"}}}, {"name": "saved_resnet_50_model/resnet50v2/conv4_block6_preact_bn/FusedBatchNormV3/Scaled", "op": "Const", "attr": {"value": {"tensor": {"dtype": "DT_FLOAT", "tensorShape": {"dim": [{"size": "1024"}]}}}, "dtype": {"type": "DT_FLOAT"}}}, {"name": "saved_resnet_50_model/resnet50v2/conv3_block1_1_conv/Conv2D_weights", "op": "Const", "attr": {"value": {"tensor": {"dtype": "DT_FLOAT", "tensorShape": {"dim": [{"size": "1"}, {"size": "1"}, {"size": "256"}, {"size": "128"}]}}}, "dtype": {"type": "DT_FLOAT"}}}, {"name": "saved_resnet_50_model/resnet50v2/conv4_block6_preact_bn/FusedBatchNormV3/Offset", "op": "Const", "attr": {"value": {"tensor": {"dtype": "DT_FLOAT", "tensorShape": {"dim": [{"size": "1024"}]}}}, "dtype": {"type": "DT_FLOAT"}}}, {"name": "saved_resnet_50_model/resnet50v2/conv3_block1_1_conv/Conv2D_bn_offset", "op": "Const", "attr": {"value": {"tensor": {"dtype": "DT_FLOAT", "tensorShape": {"dim": [{"size": "128"}]}}}, "dtype": {"type": "DT_FLOAT"}}}, {"name": "saved_resnet_50_model/resnet50v2/conv3_block1_2_conv/Conv2D_weights", "op": "Const", "attr": {"value": {"tensor": {"dtype": "DT_FLOAT", "tensorShape": {"dim": [{"size": "3"}, {"size": "3"}, {"size": "128"}, {"size": "128"}]}}}, "dtype": {"type": "DT_FLOAT"}}}, {"name": "saved_resnet_50_model/resnet50v2/conv3_block1_2_conv/Conv2D_bn_offset", "op": "Const", "attr": {"value": {"tensor": {"dtype": "DT_FLOAT", "tensorShape": {"dim": [{"size": "128"}]}}}, "dtype": {"type": "DT_FLOAT"}}}, {"name": "saved_resnet_50_model/resnet50v2/conv4_block5_preact_bn/FusedBatchNormV3/Scaled", "op": "Const", "attr": {"value": {"tensor": {"dtype": "DT_FLOAT", "tensorShape": {"dim": [{"size": "1024"}]}}}, "dtype": {"type": "DT_FLOAT"}}}, {"name": "saved_resnet_50_model/resnet50v2/conv3_block2_1_conv/Conv2D_weights", "op": "Const", "attr": {"value": {"tensor": {"dtype": "DT_FLOAT", "tensorShape": {"dim": [{"size": "1"}, {"size": "1"}, {"size": "512"}, {"size": "128"}]}}}, "dtype": {"type": "DT_FLOAT"}}}, {"name": "saved_resnet_50_model/resnet50v2/conv3_block2_1_conv/Conv2D_bn_offset", "op": "Const", "attr": {"value": {"tensor": {"dtype": "DT_FLOAT", "tensorShape": {"dim": [{"size": "128"}]}}}, "dtype": {"type": "DT_FLOAT"}}}, {"name": "saved_resnet_50_model/resnet50v2/conv4_block5_preact_bn/FusedBatchNormV3/Offset", "op": "Const", "attr": {"value": {"tensor": {"dtype": "DT_FLOAT", "tensorShape": {"dim": [{"size": "1024"}]}}}, "dtype": {"type": "DT_FLOAT"}}}, {"name": "saved_resnet_50_model/resnet50v2/conv3_block2_2_conv/Conv2D_weights", "op": "Const", "attr": {"value": {"tensor": {"dtype": "DT_FLOAT", "tensorShape": {"dim": [{"size": "3"}, {"size": "3"}, {"size": "128"}, {"size": "128"}]}}}, "dtype": {"type": "DT_FLOAT"}}}, {"name": "saved_resnet_50_model/resnet50v2/conv3_block2_2_conv/Conv2D_bn_offset", "op": "Const", "attr": {"value": {"tensor": {"dtype": "DT_FLOAT", "tensorShape": {"dim": [{"size": "128"}]}}}, "dtype": {"type": "DT_FLOAT"}}}, {"name": "saved_resnet_50_model/resnet50v2/conv4_block4_preact_bn/FusedBatchNormV3/Scaled", "op": "Const", "attr": {"value": {"tensor": {"dtype": "DT_FLOAT", "tensorShape": {"dim": [{"size": "1024"}]}}}, "dtype": {"type": "DT_FLOAT"}}}, {"name": "saved_resnet_50_model/resnet50v2/conv3_block3_1_conv/Conv2D_weights", "op": "Const", "attr": {"value": {"tensor": {"dtype": "DT_FLOAT", "tensorShape": {"dim": [{"size": "1"}, {"size": "1"}, {"size": "512"}, {"size": "128"}]}}}, "dtype": {"type": "DT_FLOAT"}}}, {"name": "saved_resnet_50_model/resnet50v2/conv3_block3_1_conv/Conv2D_bn_offset", "op": "Const", "attr": {"value": {"tensor": {"dtype": "DT_FLOAT", "tensorShape": {"dim": [{"size": "128"}]}}}, "dtype": {"type": "DT_FLOAT"}}}, {"name": "saved_resnet_50_model/resnet50v2/conv4_block4_preact_bn/FusedBatchNormV3/Offset", "op": "Const", "attr": {"value": {"tensor": {"dtype": "DT_FLOAT", "tensorShape": {"dim": [{"size": "1024"}]}}}, "dtype": {"type": "DT_FLOAT"}}}, {"name": "saved_resnet_50_model/resnet50v2/conv3_block3_2_conv/Conv2D_weights", "op": "Const", "attr": {"value": {"tensor": {"dtype": "DT_FLOAT", "tensorShape": {"dim": [{"size": "3"}, {"size": "3"}, {"size": "128"}, {"size": "128"}]}}}, "dtype": {"type": "DT_FLOAT"}}}, {"name": "saved_resnet_50_model/resnet50v2/conv3_block3_2_conv/Conv2D_bn_offset", "op": "Const", "attr": {"value": {"tensor": {"dtype": "DT_FLOAT", "tensorShape": {"dim": [{"size": "128"}]}}}, "dtype": {"type": "DT_FLOAT"}}}, {"name": "saved_resnet_50_model/resnet50v2/conv3_block4_1_conv/Conv2D_weights", "op": "Const", "attr": {"value": {"tensor": {"dtype": "DT_FLOAT", "tensorShape": {"dim": [{"size": "1"}, {"size": "1"}, {"size": "512"}, {"size": "128"}]}}}, "dtype": {"type": "DT_FLOAT"}}}, {"name": "saved_resnet_50_model/resnet50v2/conv4_block3_preact_bn/FusedBatchNormV3/Scaled", "op": "Const", "attr": {"value": {"tensor": {"dtype": "DT_FLOAT", "tensorShape": {"dim": [{"size": "1024"}]}}}, "dtype": {"type": "DT_FLOAT"}}}, {"name": "saved_resnet_50_model/resnet50v2/conv3_block4_1_conv/Conv2D_bn_offset", "op": "Const", "attr": {"value": {"tensor": {"dtype": "DT_FLOAT", "tensorShape": {"dim": [{"size": "128"}]}}}, "dtype": {"type": "DT_FLOAT"}}}, {"name": "saved_resnet_50_model/resnet50v2/conv3_block4_2_conv/Conv2D_weights", "op": "Const", "attr": {"value": {"tensor": {"dtype": "DT_FLOAT", "tensorShape": {"dim": [{"size": "3"}, {"size": "3"}, {"size": "128"}, {"size": "128"}]}}}, "dtype": {"type": "DT_FLOAT"}}}, {"name": "saved_resnet_50_model/resnet50v2/conv4_block3_preact_bn/FusedBatchNormV3/Offset", "op": "Const", "attr": {"value": {"tensor": {"dtype": "DT_FLOAT", "tensorShape": {"dim": [{"size": "1024"}]}}}, "dtype": {"type": "DT_FLOAT"}}}, {"name": "saved_resnet_50_model/resnet50v2/conv3_block4_2_conv/Conv2D_bn_offset", "op": "Const", "attr": {"value": {"tensor": {"dtype": "DT_FLOAT", "tensorShape": {"dim": [{"size": "128"}]}}}, "dtype": {"type": "DT_FLOAT"}}}, {"name": "saved_resnet_50_model/resnet50v2/conv4_block1_1_conv/Conv2D_weights", "op": "Const", "attr": {"value": {"tensor": {"dtype": "DT_FLOAT", "tensorShape": {"dim": [{"size": "1"}, {"size": "1"}, {"size": "512"}, {"size": "256"}]}}}, "dtype": {"type": "DT_FLOAT"}}}, {"name": "saved_resnet_50_model/resnet50v2/conv4_block2_preact_bn/FusedBatchNormV3/Scaled", "op": "Const", "attr": {"value": {"tensor": {"dtype": "DT_FLOAT", "tensorShape": {"dim": [{"size": "1024"}]}}}, "dtype": {"type": "DT_FLOAT"}}}, {"name": "saved_resnet_50_model/resnet50v2/conv4_block1_1_conv/Conv2D_bn_offset", "op": "Const", "attr": {"value": {"tensor": {"dtype": "DT_FLOAT", "tensorShape": {"dim": [{"size": "256"}]}}}, "dtype": {"type": "DT_FLOAT"}}}, {"name": "saved_resnet_50_model/resnet50v2/conv4_block1_2_conv/Conv2D_weights", "op": "Const", "attr": {"value": {"tensor": {"dtype": "DT_FLOAT", "tensorShape": {"dim": [{"size": "3"}, {"size": "3"}, {"size": "256"}, {"size": "256"}]}}}, "dtype": {"type": "DT_FLOAT"}}}, {"name": "saved_resnet_50_model/resnet50v2/conv4_block2_preact_bn/FusedBatchNormV3/Offset", "op": "Const", "attr": {"value": {"tensor": {"dtype": "DT_FLOAT", "tensorShape": {"dim": [{"size": "1024"}]}}}, "dtype": {"type": "DT_FLOAT"}}}, {"name": "saved_resnet_50_model/resnet50v2/conv4_block1_2_conv/Conv2D_bn_offset", "op": "Const", "attr": {"value": {"tensor": {"dtype": "DT_FLOAT", "tensorShape": {"dim": [{"size": "256"}]}}}, "dtype": {"type": "DT_FLOAT"}}}, {"name": "saved_resnet_50_model/resnet50v2/conv4_block2_1_conv/Conv2D_weights", "op": "Const", "attr": {"value": {"tensor": {"dtype": "DT_FLOAT", "tensorShape": {"dim": [{"size": "1"}, {"size": "1"}, {"size": "1024"}, {"size": "256"}]}}}, "dtype": {"type": "DT_FLOAT"}}}, {"name": "saved_resnet_50_model/resnet50v2/conv4_block2_1_conv/Conv2D_bn_offset", "op": "Const", "attr": {"value": {"tensor": {"dtype": "DT_FLOAT", "tensorShape": {"dim": [{"size": "256"}]}}}, "dtype": {"type": "DT_FLOAT"}}}, {"name": "saved_resnet_50_model/resnet50v2/conv4_block1_preact_bn/FusedBatchNormV3/Scaled", "op": "Const", "attr": {"value": {"tensor": {"dtype": "DT_FLOAT", "tensorShape": {"dim": [{"size": "512"}]}}}, "dtype": {"type": "DT_FLOAT"}}}, {"name": "saved_resnet_50_model/resnet50v2/conv4_block2_2_conv/Conv2D_weights", "op": "Const", "attr": {"value": {"tensor": {"dtype": "DT_FLOAT", "tensorShape": {"dim": [{"size": "3"}, {"size": "3"}, {"size": "256"}, {"size": "256"}]}}}, "dtype": {"type": "DT_FLOAT"}}}, {"name": "saved_resnet_50_model/resnet50v2/conv4_block2_2_conv/Conv2D_bn_offset", "op": "Const", "attr": {"value": {"tensor": {"dtype": "DT_FLOAT", "tensorShape": {"dim": [{"size": "256"}]}}}, "dtype": {"type": "DT_FLOAT"}}}, {"name": "saved_resnet_50_model/resnet50v2/conv4_block1_preact_bn/FusedBatchNormV3/Offset", "op": "Const", "attr": {"value": {"tensor": {"dtype": "DT_FLOAT", "tensorShape": {"dim": [{"size": "512"}]}}}, "dtype": {"type": "DT_FLOAT"}}}, {"name": "saved_resnet_50_model/resnet50v2/conv4_block3_1_conv/Conv2D_weights", "op": "Const", "attr": {"value": {"tensor": {"dtype": "DT_FLOAT", "tensorShape": {"dim": [{"size": "1"}, {"size": "1"}, {"size": "1024"}, {"size": "256"}]}}}, "dtype": {"type": "DT_FLOAT"}}}, {"name": "saved_resnet_50_model/resnet50v2/conv4_block3_1_conv/Conv2D_bn_offset", "op": "Const", "attr": {"value": {"tensor": {"dtype": "DT_FLOAT", "tensorShape": {"dim": [{"size": "256"}]}}}, "dtype": {"type": "DT_FLOAT"}}}, {"name": "saved_resnet_50_model/resnet50v2/conv3_block4_preact_bn/FusedBatchNormV3/Scaled", "op": "Const", "attr": {"value": {"tensor": {"dtype": "DT_FLOAT", "tensorShape": {"dim": [{"size": "512"}]}}}, "dtype": {"type": "DT_FLOAT"}}}, {"name": "saved_resnet_50_model/resnet50v2/conv4_block3_2_conv/Conv2D_weights", "op": "Const", "attr": {"value": {"tensor": {"dtype": "DT_FLOAT", "tensorShape": {"dim": [{"size": "3"}, {"size": "3"}, {"size": "256"}, {"size": "256"}]}}}, "dtype": {"type": "DT_FLOAT"}}}, {"name": "saved_resnet_50_model/resnet50v2/conv4_block3_2_conv/Conv2D_bn_offset", "op": "Const", "attr": {"value": {"tensor": {"dtype": "DT_FLOAT", "tensorShape": {"dim": [{"size": "256"}]}}}, "dtype": {"type": "DT_FLOAT"}}}, {"name": "saved_resnet_50_model/resnet50v2/conv3_block4_preact_bn/FusedBatchNormV3/Offset", "op": "Const", "attr": {"value": {"tensor": {"dtype": "DT_FLOAT", "tensorShape": {"dim": [{"size": "512"}]}}}, "dtype": {"type": "DT_FLOAT"}}}, {"name": "saved_resnet_50_model/resnet50v2/conv4_block4_1_conv/Conv2D_weights", "op": "Const", "attr": {"value": {"tensor": {"dtype": "DT_FLOAT", "tensorShape": {"dim": [{"size": "1"}, {"size": "1"}, {"size": "1024"}, {"size": "256"}]}}}, "dtype": {"type": "DT_FLOAT"}}}, {"name": "saved_resnet_50_model/resnet50v2/conv4_block4_1_conv/Conv2D_bn_offset", "op": "Const", "attr": {"value": {"tensor": {"dtype": "DT_FLOAT", "tensorShape": {"dim": [{"size": "256"}]}}}, "dtype": {"type": "DT_FLOAT"}}}, {"name": "saved_resnet_50_model/resnet50v2/conv4_block4_2_conv/Conv2D_weights", "op": "Const", "attr": {"value": {"tensor": {"dtype": "DT_FLOAT", "tensorShape": {"dim": [{"size": "3"}, {"size": "3"}, {"size": "256"}, {"size": "256"}]}}}, "dtype": {"type": "DT_FLOAT"}}}, {"name": "saved_resnet_50_model/resnet50v2/conv3_block3_preact_bn/FusedBatchNormV3/Scaled", "op": "Const", "attr": {"value": {"tensor": {"dtype": "DT_FLOAT", "tensorShape": {"dim": [{"size": "512"}]}}}, "dtype": {"type": "DT_FLOAT"}}}, {"name": "saved_resnet_50_model/resnet50v2/conv4_block4_2_conv/Conv2D_bn_offset", "op": "Const", "attr": {"value": {"tensor": {"dtype": "DT_FLOAT", "tensorShape": {"dim": [{"size": "256"}]}}}, "dtype": {"type": "DT_FLOAT"}}}, {"name": "saved_resnet_50_model/resnet50v2/conv4_block5_1_conv/Conv2D_weights", "op": "Const", "attr": {"value": {"tensor": {"dtype": "DT_FLOAT", "tensorShape": {"dim": [{"size": "1"}, {"size": "1"}, {"size": "1024"}, {"size": "256"}]}}}, "dtype": {"type": "DT_FLOAT"}}}, {"name": "saved_resnet_50_model/resnet50v2/conv3_block3_preact_bn/FusedBatchNormV3/Offset", "op": "Const", "attr": {"value": {"tensor": {"dtype": "DT_FLOAT", "tensorShape": {"dim": [{"size": "512"}]}}}, "dtype": {"type": "DT_FLOAT"}}}, {"name": "saved_resnet_50_model/resnet50v2/conv4_block5_1_conv/Conv2D_bn_offset", "op": "Const", "attr": {"value": {"tensor": {"dtype": "DT_FLOAT", "tensorShape": {"dim": [{"size": "256"}]}}}, "dtype": {"type": "DT_FLOAT"}}}, {"name": "saved_resnet_50_model/resnet50v2/conv4_block5_2_conv/Conv2D_weights", "op": "Const", "attr": {"value": {"tensor": {"dtype": "DT_FLOAT", "tensorShape": {"dim": [{"size": "3"}, {"size": "3"}, {"size": "256"}, {"size": "256"}]}}}, "dtype": {"type": "DT_FLOAT"}}}, {"name": "saved_resnet_50_model/resnet50v2/conv4_block5_2_conv/Conv2D_bn_offset", "op": "Const", "attr": {"value": {"tensor": {"dtype": "DT_FLOAT", "tensorShape": {"dim": [{"size": "256"}]}}}, "dtype": {"type": "DT_FLOAT"}}}, {"name": "saved_resnet_50_model/resnet50v2/conv3_block2_preact_bn/FusedBatchNormV3/Scaled", "op": "Const", "attr": {"value": {"tensor": {"dtype": "DT_FLOAT", "tensorShape": {"dim": [{"size": "512"}]}}}, "dtype": {"type": "DT_FLOAT"}}}, {"name": "saved_resnet_50_model/resnet50v2/conv4_block6_1_conv/Conv2D_weights", "op": "Const", "attr": {"value": {"tensor": {"dtype": "DT_FLOAT", "tensorShape": {"dim": [{"size": "1"}, {"size": "1"}, {"size": "1024"}, {"size": "256"}]}}}, "dtype": {"type": "DT_FLOAT"}}}, {"name": "saved_resnet_50_model/resnet50v2/conv4_block6_1_conv/Conv2D_bn_offset", "op": "Const", "attr": {"value": {"tensor": {"dtype": "DT_FLOAT", "tensorShape": {"dim": [{"size": "256"}]}}}, "dtype": {"type": "DT_FLOAT"}}}, {"name": "saved_resnet_50_model/resnet50v2/conv3_block2_preact_bn/FusedBatchNormV3/Offset", "op": "Const", "attr": {"value": {"tensor": {"dtype": "DT_FLOAT", "tensorShape": {"dim": [{"size": "512"}]}}}, "dtype": {"type": "DT_FLOAT"}}}, {"name": "saved_resnet_50_model/resnet50v2/conv4_block6_2_conv/Conv2D_weights", "op": "Const", "attr": {"value": {"tensor": {"dtype": "DT_FLOAT", "tensorShape": {"dim": [{"size": "3"}, {"size": "3"}, {"size": "256"}, {"size": "256"}]}}}, "dtype": {"type": "DT_FLOAT"}}}, {"name": "saved_resnet_50_model/resnet50v2/conv4_block6_2_conv/Conv2D_bn_offset", "op": "Const", "attr": {"value": {"tensor": {"dtype": "DT_FLOAT", "tensorShape": {"dim": [{"size": "256"}]}}}, "dtype": {"type": "DT_FLOAT"}}}, {"name": "saved_resnet_50_model/resnet50v2/conv3_block1_preact_bn/FusedBatchNormV3/Scaled", "op": "Const", "attr": {"value": {"tensor": {"dtype": "DT_FLOAT", "tensorShape": {"dim": [{"size": "256"}]}}}, "dtype": {"type": "DT_FLOAT"}}}, {"name": "saved_resnet_50_model/resnet50v2/conv5_block1_1_conv/Conv2D_weights", "op": "Const", "attr": {"value": {"tensor": {"dtype": "DT_FLOAT", "tensorShape": {"dim": [{"size": "1"}, {"size": "1"}, {"size": "1024"}, {"size": "512"}]}}}, "dtype": {"type": "DT_FLOAT"}}}, {"name": "saved_resnet_50_model/resnet50v2/conv5_block1_1_conv/Conv2D_bn_offset", "op": "Const", "attr": {"value": {"tensor": {"dtype": "DT_FLOAT", "tensorShape": {"dim": [{"size": "512"}]}}}, "dtype": {"type": "DT_FLOAT"}}}, {"name": "saved_resnet_50_model/resnet50v2/conv3_block1_preact_bn/FusedBatchNormV3/Offset", "op": "Const", "attr": {"value": {"tensor": {"dtype": "DT_FLOAT", "tensorShape": {"dim": [{"size": "256"}]}}}, "dtype": {"type": "DT_FLOAT"}}}, {"name": "saved_resnet_50_model/resnet50v2/conv5_block1_2_conv/Conv2D_weights", "op": "Const", "attr": {"value": {"tensor": {"dtype": "DT_FLOAT", "tensorShape": {"dim": [{"size": "3"}, {"size": "3"}, {"size": "512"}, {"size": "512"}]}}}, "dtype": {"type": "DT_FLOAT"}}}, {"name": "saved_resnet_50_model/resnet50v2/conv5_block1_2_conv/Conv2D_bn_offset", "op": "Const", "attr": {"value": {"tensor": {"dtype": "DT_FLOAT", "tensorShape": {"dim": [{"size": "512"}]}}}, "dtype": {"type": "DT_FLOAT"}}}, {"name": "saved_resnet_50_model/resnet50v2/conv2_block3_preact_bn/FusedBatchNormV3/Scaled", "op": "Const", "attr": {"value": {"tensor": {"dtype": "DT_FLOAT", "tensorShape": {"dim": [{"size": "256"}]}}}, "dtype": {"type": "DT_FLOAT"}}}, {"name": "saved_resnet_50_model/resnet50v2/conv5_block2_1_conv/Conv2D_weights", "op": "Const", "attr": {"value": {"tensor": {"dtype": "DT_FLOAT", "tensorShape": {"dim": [{"size": "1"}, {"size": "1"}, {"size": "2048"}, {"size": "512"}]}}}, "dtype": {"type": "DT_FLOAT"}}}, {"name": "saved_resnet_50_model/resnet50v2/conv5_block2_1_conv/Conv2D_bn_offset", "op": "Const", "attr": {"value": {"tensor": {"dtype": "DT_FLOAT", "tensorShape": {"dim": [{"size": "512"}]}}}, "dtype": {"type": "DT_FLOAT"}}}, {"name": "saved_resnet_50_model/resnet50v2/conv2_block3_preact_bn/FusedBatchNormV3/Offset", "op": "Const", "attr": {"value": {"tensor": {"dtype": "DT_FLOAT", "tensorShape": {"dim": [{"size": "256"}]}}}, "dtype": {"type": "DT_FLOAT"}}}, {"name": "saved_resnet_50_model/resnet50v2/conv5_block2_2_conv/Conv2D_weights", "op": "Const", "attr": {"value": {"tensor": {"dtype": "DT_FLOAT", "tensorShape": {"dim": [{"size": "3"}, {"size": "3"}, {"size": "512"}, {"size": "512"}]}}}, "dtype": {"type": "DT_FLOAT"}}}, {"name": "saved_resnet_50_model/resnet50v2/conv5_block2_2_conv/Conv2D_bn_offset", "op": "Const", "attr": {"value": {"tensor": {"dtype": "DT_FLOAT", "tensorShape": {"dim": [{"size": "512"}]}}}, "dtype": {"type": "DT_FLOAT"}}}, {"name": "saved_resnet_50_model/resnet50v2/conv5_block3_1_conv/Conv2D_weights", "op": "Const", "attr": {"value": {"tensor": {"dtype": "DT_FLOAT", "tensorShape": {"dim": [{"size": "1"}, {"size": "1"}, {"size": "2048"}, {"size": "512"}]}}}, "dtype": {"type": "DT_FLOAT"}}}, {"name": "saved_resnet_50_model/resnet50v2/conv2_block2_preact_bn/FusedBatchNormV3/Scaled", "op": "Const", "attr": {"value": {"tensor": {"dtype": "DT_FLOAT", "tensorShape": {"dim": [{"size": "256"}]}}}, "dtype": {"type": "DT_FLOAT"}}}, {"name": "saved_resnet_50_model/resnet50v2/conv5_block3_1_conv/Conv2D_bn_offset", "op": "Const", "attr": {"value": {"tensor": {"dtype": "DT_FLOAT", "tensorShape": {"dim": [{"size": "512"}]}}}, "dtype": {"type": "DT_FLOAT"}}}, {"name": "saved_resnet_50_model/resnet50v2/conv5_block3_2_conv/Conv2D_weights", "op": "Const", "attr": {"value": {"tensor": {"dtype": "DT_FLOAT", "tensorShape": {"dim": [{"size": "3"}, {"size": "3"}, {"size": "512"}, {"size": "512"}]}}}, "dtype": {"type": "DT_FLOAT"}}}, {"name": "saved_resnet_50_model/resnet50v2/conv2_block2_preact_bn/FusedBatchNormV3/Offset", "op": "Const", "attr": {"value": {"tensor": {"dtype": "DT_FLOAT", "tensorShape": {"dim": [{"size": "256"}]}}}, "dtype": {"type": "DT_FLOAT"}}}, {"name": "saved_resnet_50_model/resnet50v2/conv5_block3_2_conv/Conv2D_bn_offset", "op": "Const", "attr": {"value": {"tensor": {"dtype": "DT_FLOAT", "tensorShape": {"dim": [{"size": "512"}]}}}, "dtype": {"type": "DT_FLOAT"}}}, {"name": "saved_resnet_50_model/resnet50v2/conv2_block1_preact_bn/FusedBatchNormV3/Scaled", "op": "Const", "attr": {"value": {"tensor": {"dtype": "DT_FLOAT", "tensorShape": {"dim": [{"size": "64"}]}}}, "dtype": {"type": "DT_FLOAT"}}}, {"name": "saved_resnet_50_model/resnet50v2/conv2_block1_preact_bn/FusedBatchNormV3/Offset", "op": "Const", "attr": {"value": {"tensor": {"dtype": "DT_FLOAT", "tensorShape": {"dim": [{"size": "64"}]}}}, "dtype": {"type": "DT_FLOAT"}}}, {"name": "saved_resnet_50_model/resnet50v2/post_bn/FusedBatchNormV3/Scaled", "op": "Const", "attr": {"value": {"tensor": {"dtype": "DT_FLOAT", "tensorShape": {"dim": [{"size": "2048"}]}}}, "dtype": {"type": "DT_FLOAT"}}}, {"name": "saved_resnet_50_model/resnet50v2/post_bn/FusedBatchNormV3/Offset", "op": "Const", "attr": {"value": {"tensor": {"dtype": "DT_FLOAT", "tensorShape": {"dim": [{"size": "2048"}]}}}, "dtype": {"type": "DT_FLOAT"}}}, {"name": "saved_resnet_50_model/resnet50v2/conv5_block3_preact_bn/FusedBatchNormV3/Scaled", "op": "Const", "attr": {"value": {"tensor": {"dtype": "DT_FLOAT", "tensorShape": {"dim": [{"size": "2048"}]}}}, "dtype": {"type": "DT_FLOAT"}}}, {"name": "saved_resnet_50_model/tf_op_layer_Mul/Mul", "op": "Mul", "input": ["Image", "saved_resnet_50_model/tf_op_layer_Mul/Mul/y"], "attr": {"T": {"type": "DT_FLOAT"}}}, {"name": "saved_resnet_50_model/tf_op_layer_Sub/Sub", "op": "Sub", "input": ["saved_resnet_50_model/tf_op_layer_Mul/Mul", "saved_resnet_50_model/tf_op_layer_Sub/Sub/y"], "attr": {"T": {"type": "DT_FLOAT"}}}, {"name": "saved_resnet_50_model/resnet50v2/conv1_conv/BiasAdd", "op": "_FusedConv2D", "input": ["saved_resnet_50_model/tf_op_layer_Sub/Sub", "conv1_conv/kernel", "conv1_conv/bias"], "device": "/device:CPU:0", "attr": {"dilations": {"list": {"i": ["1", "1", "1", "1"]}}, "T": {"type": "DT_FLOAT"}, "data_format": {"s": "TkhXQw=="}, "strides": {"list": {"i": ["1", "2", "2", "1"]}}, "explicit_paddings": {"list": {"i": ["0", "0", "3", "3", "3", "3", "0", "0"]}}, "use_cudnn_on_gpu": {"b": true}, "num_args": {"i": "1"}, "epsilon": {"f": 0.0}, "padding": {"s": "RVhQTElDSVQ="}, "fused_ops": {"list": {"s": ["Qmlhc0FkZA=="]}}}}, {"name": "saved_resnet_50_model/resnet50v2/pool1_pad/Pad", "op": "Pad", "input": ["saved_resnet_50_model/resnet50v2/conv1_conv/BiasAdd", "saved_resnet_50_model/resnet50v2/pool1_pad/Pad/paddings"], "attr": {"T": {"type": "DT_FLOAT"}, "Tpaddings": {"type": "DT_INT32"}}}, {"name": "saved_resnet_50_model/resnet50v2/pool1_pool/MaxPool", "op": "MaxPool", "input": ["saved_resnet_50_model/resnet50v2/pool1_pad/Pad"], "attr": {"ksize": {"list": {"i": ["1", "3", "3", "1"]}}, "padding": {"s": "VkFMSUQ="}, "T": {"type": "DT_FLOAT"}, "strides": {"list": {"i": ["1", "2", "2", "1"]}}, "data_format": {"s": "TkhXQw=="}}}, {"name": "saved_resnet_50_model/resnet50v2/conv2_block1_preact_bn/FusedBatchNormV3/Mul", "op": "Mul", "input": ["saved_resnet_50_model/resnet50v2/conv2_block1_preact_bn/FusedBatchNormV3/Scaled", "saved_resnet_50_model/resnet50v2/pool1_pool/MaxPool"], "attr": {"T": {"type": "DT_FLOAT"}}}, {"name": "saved_resnet_50_model/resnet50v2/conv2_block1_preact_bn/FusedBatchNormV3", "op": "Add", "input": ["saved_resnet_50_model/resnet50v2/conv2_block1_preact_bn/FusedBatchNormV3/Mul", "saved_resnet_50_model/resnet50v2/conv2_block1_preact_bn/FusedBatchNormV3/Offset"], "attr": {"T": {"type": "DT_FLOAT"}}}, {"name": "saved_resnet_50_model/resnet50v2/conv2_block1_preact_relu/Relu", "op": "Relu", "input": ["saved_resnet_50_model/resnet50v2/conv2_block1_preact_bn/FusedBatchNormV3"], "attr": {"T": {"type": "DT_FLOAT"}}}, {"name": "saved_resnet_50_model/resnet50v2/conv2_block1_0_conv/BiasAdd", "op": "_FusedConv2D", "input": ["saved_resnet_50_model/resnet50v2/conv2_block1_preact_relu/Relu", "conv2_block1_0_conv/kernel", "conv2_block1_0_conv/bias"], "device": "/device:CPU:0", "attr": {"dilations": {"list": {"i": ["1", "1", "1", "1"]}}, "T": {"type": "DT_FLOAT"}, "data_format": {"s": "TkhXQw=="}, "strides": {"list": {"i": ["1", "1", "1", "1"]}}, "explicit_paddings": {"list": {}}, "use_cudnn_on_gpu": {"b": true}, "num_args": {"i": "1"}, "epsilon": {"f": 0.0}, "padding": {"s": "VkFMSUQ="}, "fused_ops": {"list": {"s": ["Qmlhc0FkZA=="]}}}}, {"name": "saved_resnet_50_model/resnet50v2/conv2_block1_1_relu/Relu", "op": "_FusedConv2D", "input": ["saved_resnet_50_model/resnet50v2/conv2_block1_preact_relu/Relu", "saved_resnet_50_model/resnet50v2/conv2_block1_1_conv/Conv2D_weights", "saved_resnet_50_model/resnet50v2/conv2_block1_1_conv/Conv2D_bn_offset"], "device": "/device:CPU:0", "attr": {"dilations": {"list": {"i": ["1", "1", "1", "1"]}}, "T": {"type": "DT_FLOAT"}, "data_format": {"s": "TkhXQw=="}, "strides": {"list": {"i": ["1", "1", "1", "1"]}}, "explicit_paddings": {"list": {}}, "use_cudnn_on_gpu": {"b": true}, "num_args": {"i": "1"}, "epsilon": {"f": 0.0}, "padding": {"s": "VkFMSUQ="}, "fused_ops": {"list": {"s": ["Qmlhc0FkZA==", "UmVsdQ=="]}}}}, {"name": "saved_resnet_50_model/resnet50v2/conv2_block1_2_relu/Relu", "op": "_FusedConv2D", "input": ["saved_resnet_50_model/resnet50v2/conv2_block1_1_relu/Relu", "saved_resnet_50_model/resnet50v2/conv2_block1_2_conv/Conv2D_weights", "saved_resnet_50_model/resnet50v2/conv2_block1_2_conv/Conv2D_bn_offset"], "device": "/device:CPU:0", "attr": {"dilations": {"list": {"i": ["1", "1", "1", "1"]}}, "T": {"type": "DT_FLOAT"}, "data_format": {"s": "TkhXQw=="}, "strides": {"list": {"i": ["1", "1", "1", "1"]}}, "explicit_paddings": {"list": {"i": ["0", "0", "1", "1", "1", "1", "0", "0"]}}, "use_cudnn_on_gpu": {"b": true}, "num_args": {"i": "1"}, "epsilon": {"f": 0.0}, "padding": {"s": "RVhQTElDSVQ="}, "fused_ops": {"list": {"s": ["Qmlhc0FkZA==", "UmVsdQ=="]}}}}, {"name": "saved_resnet_50_model/resnet50v2/conv2_block1_3_conv/BiasAdd", "op": "_FusedConv2D", "input": ["saved_resnet_50_model/resnet50v2/conv2_block1_2_relu/Relu", "conv2_block1_3_conv/kernel", "conv2_block1_3_conv/bias"], "device": "/device:CPU:0", "attr": {"dilations": {"list": {"i": ["1", "1", "1", "1"]}}, "T": {"type": "DT_FLOAT"}, "data_format": {"s": "TkhXQw=="}, "strides": {"list": {"i": ["1", "1", "1", "1"]}}, "explicit_paddings": {"list": {}}, "use_cudnn_on_gpu": {"b": true}, "num_args": {"i": "1"}, "epsilon": {"f": 0.0}, "padding": {"s": "VkFMSUQ="}, "fused_ops": {"list": {"s": ["Qmlhc0FkZA=="]}}}}, {"name": "saved_resnet_50_model/resnet50v2/conv2_block1_out/add", "op": "AddV2", "input": ["saved_resnet_50_model/resnet50v2/conv2_block1_0_conv/BiasAdd", "saved_resnet_50_model/resnet50v2/conv2_block1_3_conv/BiasAdd"], "attr": {"T": {"type": "DT_FLOAT"}}}, {"name": "saved_resnet_50_model/resnet50v2/conv2_block2_preact_bn/FusedBatchNormV3/Mul", "op": "Mul", "input": ["saved_resnet_50_model/resnet50v2/conv2_block1_out/add", "saved_resnet_50_model/resnet50v2/conv2_block2_preact_bn/FusedBatchNormV3/Scaled"], "attr": {"T": {"type": "DT_FLOAT"}}}, {"name": "saved_resnet_50_model/resnet50v2/conv2_block2_preact_bn/FusedBatchNormV3", "op": "Add", "input": ["saved_resnet_50_model/resnet50v2/conv2_block2_preact_bn/FusedBatchNormV3/Mul", "saved_resnet_50_model/resnet50v2/conv2_block2_preact_bn/FusedBatchNormV3/Offset"], "attr": {"T": {"type": "DT_FLOAT"}}}, {"name": "saved_resnet_50_model/resnet50v2/conv2_block2_preact_relu/Relu", "op": "Relu", "input": ["saved_resnet_50_model/resnet50v2/conv2_block2_preact_bn/FusedBatchNormV3"], "attr": {"T": {"type": "DT_FLOAT"}}}, {"name": "saved_resnet_50_model/resnet50v2/conv2_block2_1_relu/Relu", "op": "_FusedConv2D", "input": ["saved_resnet_50_model/resnet50v2/conv2_block2_preact_relu/Relu", "saved_resnet_50_model/resnet50v2/conv2_block2_1_conv/Conv2D_weights", "saved_resnet_50_model/resnet50v2/conv2_block2_1_conv/Conv2D_bn_offset"], "device": "/device:CPU:0", "attr": {"dilations": {"list": {"i": ["1", "1", "1", "1"]}}, "T": {"type": "DT_FLOAT"}, "data_format": {"s": "TkhXQw=="}, "strides": {"list": {"i": ["1", "1", "1", "1"]}}, "explicit_paddings": {"list": {}}, "use_cudnn_on_gpu": {"b": true}, "num_args": {"i": "1"}, "epsilon": {"f": 0.0}, "padding": {"s": "VkFMSUQ="}, "fused_ops": {"list": {"s": ["Qmlhc0FkZA==", "UmVsdQ=="]}}}}, {"name": "saved_resnet_50_model/resnet50v2/conv2_block2_2_relu/Relu", "op": "_FusedConv2D", "input": ["saved_resnet_50_model/resnet50v2/conv2_block2_1_relu/Relu", "saved_resnet_50_model/resnet50v2/conv2_block2_2_conv/Conv2D_weights", "saved_resnet_50_model/resnet50v2/conv2_block2_2_conv/Conv2D_bn_offset"], "device": "/device:CPU:0", "attr": {"dilations": {"list": {"i": ["1", "1", "1", "1"]}}, "T": {"type": "DT_FLOAT"}, "data_format": {"s": "TkhXQw=="}, "strides": {"list": {"i": ["1", "1", "1", "1"]}}, "explicit_paddings": {"list": {"i": ["0", "0", "1", "1", "1", "1", "0", "0"]}}, "use_cudnn_on_gpu": {"b": true}, "num_args": {"i": "1"}, "epsilon": {"f": 0.0}, "padding": {"s": "RVhQTElDSVQ="}, "fused_ops": {"list": {"s": ["Qmlhc0FkZA==", "UmVsdQ=="]}}}}, {"name": "saved_resnet_50_model/resnet50v2/conv2_block2_3_conv/BiasAdd", "op": "_FusedConv2D", "input": ["saved_resnet_50_model/resnet50v2/conv2_block2_2_relu/Relu", "conv2_block2_3_conv/kernel", "conv2_block2_3_conv/bias"], "device": "/device:CPU:0", "attr": {"dilations": {"list": {"i": ["1", "1", "1", "1"]}}, "T": {"type": "DT_FLOAT"}, "data_format": {"s": "TkhXQw=="}, "strides": {"list": {"i": ["1", "1", "1", "1"]}}, "explicit_paddings": {"list": {}}, "use_cudnn_on_gpu": {"b": true}, "num_args": {"i": "1"}, "epsilon": {"f": 0.0}, "padding": {"s": "VkFMSUQ="}, "fused_ops": {"list": {"s": ["Qmlhc0FkZA=="]}}}}, {"name": "saved_resnet_50_model/resnet50v2/conv2_block2_out/add", "op": "AddV2", "input": ["saved_resnet_50_model/resnet50v2/conv2_block1_out/add", "saved_resnet_50_model/resnet50v2/conv2_block2_3_conv/BiasAdd"], "attr": {"T": {"type": "DT_FLOAT"}}}, {"name": "saved_resnet_50_model/resnet50v2/max_pooling2d/MaxPool", "op": "MaxPool", "input": ["saved_resnet_50_model/resnet50v2/conv2_block2_out/add"], "attr": {"ksize": {"list": {"i": ["1", "1", "1", "1"]}}, "padding": {"s": "VkFMSUQ="}, "T": {"type": "DT_FLOAT"}, "strides": {"list": {"i": ["1", "2", "2", "1"]}}, "data_format": {"s": "TkhXQw=="}}}, {"name": "saved_resnet_50_model/resnet50v2/conv2_block3_preact_bn/FusedBatchNormV3/Mul", "op": "Mul", "input": ["saved_resnet_50_model/resnet50v2/conv2_block2_out/add", "saved_resnet_50_model/resnet50v2/conv2_block3_preact_bn/FusedBatchNormV3/Scaled"], "attr": {"T": {"type": "DT_FLOAT"}}}, {"name": "saved_resnet_50_model/resnet50v2/conv2_block3_preact_bn/FusedBatchNormV3", "op": "Add", "input": ["saved_resnet_50_model/resnet50v2/conv2_block3_preact_bn/FusedBatchNormV3/Mul", "saved_resnet_50_model/resnet50v2/conv2_block3_preact_bn/FusedBatchNormV3/Offset"], "attr": {"T": {"type": "DT_FLOAT"}}}, {"name": "saved_resnet_50_model/resnet50v2/conv2_block3_preact_relu/Relu", "op": "Relu", "input": ["saved_resnet_50_model/resnet50v2/conv2_block3_preact_bn/FusedBatchNormV3"], "attr": {"T": {"type": "DT_FLOAT"}}}, {"name": "saved_resnet_50_model/resnet50v2/conv2_block3_1_relu/Relu", "op": "_FusedConv2D", "input": ["saved_resnet_50_model/resnet50v2/conv2_block3_preact_relu/Relu", "saved_resnet_50_model/resnet50v2/conv2_block3_1_conv/Conv2D_weights", "saved_resnet_50_model/resnet50v2/conv2_block3_1_conv/Conv2D_bn_offset"], "device": "/device:CPU:0", "attr": {"dilations": {"list": {"i": ["1", "1", "1", "1"]}}, "T": {"type": "DT_FLOAT"}, "data_format": {"s": "TkhXQw=="}, "strides": {"list": {"i": ["1", "1", "1", "1"]}}, "explicit_paddings": {"list": {}}, "use_cudnn_on_gpu": {"b": true}, "num_args": {"i": "1"}, "epsilon": {"f": 0.0}, "padding": {"s": "VkFMSUQ="}, "fused_ops": {"list": {"s": ["Qmlhc0FkZA==", "UmVsdQ=="]}}}}, {"name": "saved_resnet_50_model/resnet50v2/conv2_block3_2_relu/Relu", "op": "_FusedConv2D", "input": ["saved_resnet_50_model/resnet50v2/conv2_block3_1_relu/Relu", "saved_resnet_50_model/resnet50v2/conv2_block3_2_conv/Conv2D_weights", "saved_resnet_50_model/resnet50v2/conv2_block3_2_conv/Conv2D_bn_offset"], "device": "/device:CPU:0", "attr": {"dilations": {"list": {"i": ["1", "1", "1", "1"]}}, "T": {"type": "DT_FLOAT"}, "data_format": {"s": "TkhXQw=="}, "strides": {"list": {"i": ["1", "2", "2", "1"]}}, "explicit_paddings": {"list": {"i": ["0", "0", "1", "1", "1", "1", "0", "0"]}}, "use_cudnn_on_gpu": {"b": true}, "num_args": {"i": "1"}, "epsilon": {"f": 0.0}, "padding": {"s": "RVhQTElDSVQ="}, "fused_ops": {"list": {"s": ["Qmlhc0FkZA==", "UmVsdQ=="]}}}}, {"name": "saved_resnet_50_model/resnet50v2/conv2_block3_3_conv/BiasAdd", "op": "_FusedConv2D", "input": ["saved_resnet_50_model/resnet50v2/conv2_block3_2_relu/Relu", "conv2_block3_3_conv/kernel", "conv2_block3_3_conv/bias"], "device": "/device:CPU:0", "attr": {"dilations": {"list": {"i": ["1", "1", "1", "1"]}}, "T": {"type": "DT_FLOAT"}, "data_format": {"s": "TkhXQw=="}, "strides": {"list": {"i": ["1", "1", "1", "1"]}}, "explicit_paddings": {"list": {}}, "use_cudnn_on_gpu": {"b": true}, "num_args": {"i": "1"}, "epsilon": {"f": 0.0}, "padding": {"s": "VkFMSUQ="}, "fused_ops": {"list": {"s": ["Qmlhc0FkZA=="]}}}}, {"name": "saved_resnet_50_model/resnet50v2/conv2_block3_out/add", "op": "AddV2", "input": ["saved_resnet_50_model/resnet50v2/conv2_block3_3_conv/BiasAdd", "saved_resnet_50_model/resnet50v2/max_pooling2d/MaxPool"], "attr": {"T": {"type": "DT_FLOAT"}}}, {"name": "saved_resnet_50_model/resnet50v2/conv3_block1_preact_bn/FusedBatchNormV3/Mul", "op": "Mul", "input": ["saved_resnet_50_model/resnet50v2/conv2_block3_out/add", "saved_resnet_50_model/resnet50v2/conv3_block1_preact_bn/FusedBatchNormV3/Scaled"], "attr": {"T": {"type": "DT_FLOAT"}}}, {"name": "saved_resnet_50_model/resnet50v2/conv3_block1_preact_bn/FusedBatchNormV3", "op": "Add", "input": ["saved_resnet_50_model/resnet50v2/conv3_block1_preact_bn/FusedBatchNormV3/Mul", "saved_resnet_50_model/resnet50v2/conv3_block1_preact_bn/FusedBatchNormV3/Offset"], "attr": {"T": {"type": "DT_FLOAT"}}}, {"name": "saved_resnet_50_model/resnet50v2/conv3_block1_preact_relu/Relu", "op": "Relu", "input": ["saved_resnet_50_model/resnet50v2/conv3_block1_preact_bn/FusedBatchNormV3"], "attr": {"T": {"type": "DT_FLOAT"}}}, {"name": "saved_resnet_50_model/resnet50v2/conv3_block1_0_conv/BiasAdd", "op": "_FusedConv2D", "input": ["saved_resnet_50_model/resnet50v2/conv3_block1_preact_relu/Relu", "conv3_block1_0_conv/kernel", "conv3_block1_0_conv/bias"], "device": "/device:CPU:0", "attr": {"dilations": {"list": {"i": ["1", "1", "1", "1"]}}, "T": {"type": "DT_FLOAT"}, "data_format": {"s": "TkhXQw=="}, "strides": {"list": {"i": ["1", "1", "1", "1"]}}, "explicit_paddings": {"list": {}}, "use_cudnn_on_gpu": {"b": true}, "num_args": {"i": "1"}, "epsilon": {"f": 0.0}, "padding": {"s": "VkFMSUQ="}, "fused_ops": {"list": {"s": ["Qmlhc0FkZA=="]}}}}, {"name": "saved_resnet_50_model/resnet50v2/conv3_block1_1_relu/Relu", "op": "_FusedConv2D", "input": ["saved_resnet_50_model/resnet50v2/conv3_block1_preact_relu/Relu", "saved_resnet_50_model/resnet50v2/conv3_block1_1_conv/Conv2D_weights", "saved_resnet_50_model/resnet50v2/conv3_block1_1_conv/Conv2D_bn_offset"], "device": "/device:CPU:0", "attr": {"dilations": {"list": {"i": ["1", "1", "1", "1"]}}, "T": {"type": "DT_FLOAT"}, "data_format": {"s": "TkhXQw=="}, "strides": {"list": {"i": ["1", "1", "1", "1"]}}, "explicit_paddings": {"list": {}}, "use_cudnn_on_gpu": {"b": true}, "num_args": {"i": "1"}, "epsilon": {"f": 0.0}, "padding": {"s": "VkFMSUQ="}, "fused_ops": {"list": {"s": ["Qmlhc0FkZA==", "UmVsdQ=="]}}}}, {"name": "saved_resnet_50_model/resnet50v2/conv3_block1_2_relu/Relu", "op": "_FusedConv2D", "input": ["saved_resnet_50_model/resnet50v2/conv3_block1_1_relu/Relu", "saved_resnet_50_model/resnet50v2/conv3_block1_2_conv/Conv2D_weights", "saved_resnet_50_model/resnet50v2/conv3_block1_2_conv/Conv2D_bn_offset"], "device": "/device:CPU:0", "attr": {"dilations": {"list": {"i": ["1", "1", "1", "1"]}}, "T": {"type": "DT_FLOAT"}, "data_format": {"s": "TkhXQw=="}, "strides": {"list": {"i": ["1", "1", "1", "1"]}}, "explicit_paddings": {"list": {"i": ["0", "0", "1", "1", "1", "1", "0", "0"]}}, "use_cudnn_on_gpu": {"b": true}, "num_args": {"i": "1"}, "epsilon": {"f": 0.0}, "padding": {"s": "RVhQTElDSVQ="}, "fused_ops": {"list": {"s": ["Qmlhc0FkZA==", "UmVsdQ=="]}}}}, {"name": "saved_resnet_50_model/resnet50v2/conv3_block1_3_conv/BiasAdd", "op": "_FusedConv2D", "input": ["saved_resnet_50_model/resnet50v2/conv3_block1_2_relu/Relu", "conv3_block1_3_conv/kernel", "conv3_block1_3_conv/bias"], "device": "/device:CPU:0", "attr": {"dilations": {"list": {"i": ["1", "1", "1", "1"]}}, "T": {"type": "DT_FLOAT"}, "data_format": {"s": "TkhXQw=="}, "strides": {"list": {"i": ["1", "1", "1", "1"]}}, "explicit_paddings": {"list": {}}, "use_cudnn_on_gpu": {"b": true}, "num_args": {"i": "1"}, "epsilon": {"f": 0.0}, "padding": {"s": "VkFMSUQ="}, "fused_ops": {"list": {"s": ["Qmlhc0FkZA=="]}}}}, {"name": "saved_resnet_50_model/resnet50v2/conv3_block1_out/add", "op": "AddV2", "input": ["saved_resnet_50_model/resnet50v2/conv3_block1_0_conv/BiasAdd", "saved_resnet_50_model/resnet50v2/conv3_block1_3_conv/BiasAdd"], "attr": {"T": {"type": "DT_FLOAT"}}}, {"name": "saved_resnet_50_model/resnet50v2/conv3_block2_preact_bn/FusedBatchNormV3/Mul", "op": "Mul", "input": ["saved_resnet_50_model/resnet50v2/conv3_block1_out/add", "saved_resnet_50_model/resnet50v2/conv3_block2_preact_bn/FusedBatchNormV3/Scaled"], "attr": {"T": {"type": "DT_FLOAT"}}}, {"name": "saved_resnet_50_model/resnet50v2/conv3_block2_preact_bn/FusedBatchNormV3", "op": "Add", "input": ["saved_resnet_50_model/resnet50v2/conv3_block2_preact_bn/FusedBatchNormV3/Mul", "saved_resnet_50_model/resnet50v2/conv3_block2_preact_bn/FusedBatchNormV3/Offset"], "attr": {"T": {"type": "DT_FLOAT"}}}, {"name": "saved_resnet_50_model/resnet50v2/conv3_block2_preact_relu/Relu", "op": "Relu", "input": ["saved_resnet_50_model/resnet50v2/conv3_block2_preact_bn/FusedBatchNormV3"], "attr": {"T": {"type": "DT_FLOAT"}}}, {"name": "saved_resnet_50_model/resnet50v2/conv3_block2_1_relu/Relu", "op": "_FusedConv2D", "input": ["saved_resnet_50_model/resnet50v2/conv3_block2_preact_relu/Relu", "saved_resnet_50_model/resnet50v2/conv3_block2_1_conv/Conv2D_weights", "saved_resnet_50_model/resnet50v2/conv3_block2_1_conv/Conv2D_bn_offset"], "device": "/device:CPU:0", "attr": {"dilations": {"list": {"i": ["1", "1", "1", "1"]}}, "T": {"type": "DT_FLOAT"}, "data_format": {"s": "TkhXQw=="}, "strides": {"list": {"i": ["1", "1", "1", "1"]}}, "explicit_paddings": {"list": {}}, "use_cudnn_on_gpu": {"b": true}, "num_args": {"i": "1"}, "epsilon": {"f": 0.0}, "padding": {"s": "VkFMSUQ="}, "fused_ops": {"list": {"s": ["Qmlhc0FkZA==", "UmVsdQ=="]}}}}, {"name": "saved_resnet_50_model/resnet50v2/conv3_block2_2_relu/Relu", "op": "_FusedConv2D", "input": ["saved_resnet_50_model/resnet50v2/conv3_block2_1_relu/Relu", "saved_resnet_50_model/resnet50v2/conv3_block2_2_conv/Conv2D_weights", "saved_resnet_50_model/resnet50v2/conv3_block2_2_conv/Conv2D_bn_offset"], "device": "/device:CPU:0", "attr": {"dilations": {"list": {"i": ["1", "1", "1", "1"]}}, "T": {"type": "DT_FLOAT"}, "data_format": {"s": "TkhXQw=="}, "strides": {"list": {"i": ["1", "1", "1", "1"]}}, "explicit_paddings": {"list": {"i": ["0", "0", "1", "1", "1", "1", "0", "0"]}}, "use_cudnn_on_gpu": {"b": true}, "num_args": {"i": "1"}, "epsilon": {"f": 0.0}, "padding": {"s": "RVhQTElDSVQ="}, "fused_ops": {"list": {"s": ["Qmlhc0FkZA==", "UmVsdQ=="]}}}}, {"name": "saved_resnet_50_model/resnet50v2/conv3_block2_3_conv/BiasAdd", "op": "_FusedConv2D", "input": ["saved_resnet_50_model/resnet50v2/conv3_block2_2_relu/Relu", "conv3_block2_3_conv/kernel", "conv3_block2_3_conv/bias"], "device": "/device:CPU:0", "attr": {"dilations": {"list": {"i": ["1", "1", "1", "1"]}}, "T": {"type": "DT_FLOAT"}, "data_format": {"s": "TkhXQw=="}, "strides": {"list": {"i": ["1", "1", "1", "1"]}}, "explicit_paddings": {"list": {}}, "use_cudnn_on_gpu": {"b": true}, "num_args": {"i": "1"}, "epsilon": {"f": 0.0}, "padding": {"s": "VkFMSUQ="}, "fused_ops": {"list": {"s": ["Qmlhc0FkZA=="]}}}}, {"name": "saved_resnet_50_model/resnet50v2/conv3_block2_out/add", "op": "AddV2", "input": ["saved_resnet_50_model/resnet50v2/conv3_block1_out/add", "saved_resnet_50_model/resnet50v2/conv3_block2_3_conv/BiasAdd"], "attr": {"T": {"type": "DT_FLOAT"}}}, {"name": "saved_resnet_50_model/resnet50v2/conv3_block3_preact_bn/FusedBatchNormV3/Mul", "op": "Mul", "input": ["saved_resnet_50_model/resnet50v2/conv3_block2_out/add", "saved_resnet_50_model/resnet50v2/conv3_block3_preact_bn/FusedBatchNormV3/Scaled"], "attr": {"T": {"type": "DT_FLOAT"}}}, {"name": "saved_resnet_50_model/resnet50v2/conv3_block3_preact_bn/FusedBatchNormV3", "op": "Add", "input": ["saved_resnet_50_model/resnet50v2/conv3_block3_preact_bn/FusedBatchNormV3/Mul", "saved_resnet_50_model/resnet50v2/conv3_block3_preact_bn/FusedBatchNormV3/Offset"], "attr": {"T": {"type": "DT_FLOAT"}}}, {"name": "saved_resnet_50_model/resnet50v2/conv3_block3_preact_relu/Relu", "op": "Relu", "input": ["saved_resnet_50_model/resnet50v2/conv3_block3_preact_bn/FusedBatchNormV3"], "attr": {"T": {"type": "DT_FLOAT"}}}, {"name": "saved_resnet_50_model/resnet50v2/conv3_block3_1_relu/Relu", "op": "_FusedConv2D", "input": ["saved_resnet_50_model/resnet50v2/conv3_block3_preact_relu/Relu", "saved_resnet_50_model/resnet50v2/conv3_block3_1_conv/Conv2D_weights", "saved_resnet_50_model/resnet50v2/conv3_block3_1_conv/Conv2D_bn_offset"], "device": "/device:CPU:0", "attr": {"dilations": {"list": {"i": ["1", "1", "1", "1"]}}, "T": {"type": "DT_FLOAT"}, "data_format": {"s": "TkhXQw=="}, "strides": {"list": {"i": ["1", "1", "1", "1"]}}, "explicit_paddings": {"list": {}}, "use_cudnn_on_gpu": {"b": true}, "num_args": {"i": "1"}, "epsilon": {"f": 0.0}, "padding": {"s": "VkFMSUQ="}, "fused_ops": {"list": {"s": ["Qmlhc0FkZA==", "UmVsdQ=="]}}}}, {"name": "saved_resnet_50_model/resnet50v2/conv3_block3_2_relu/Relu", "op": "_FusedConv2D", "input": ["saved_resnet_50_model/resnet50v2/conv3_block3_1_relu/Relu", "saved_resnet_50_model/resnet50v2/conv3_block3_2_conv/Conv2D_weights", "saved_resnet_50_model/resnet50v2/conv3_block3_2_conv/Conv2D_bn_offset"], "device": "/device:CPU:0", "attr": {"dilations": {"list": {"i": ["1", "1", "1", "1"]}}, "T": {"type": "DT_FLOAT"}, "data_format": {"s": "TkhXQw=="}, "strides": {"list": {"i": ["1", "1", "1", "1"]}}, "explicit_paddings": {"list": {"i": ["0", "0", "1", "1", "1", "1", "0", "0"]}}, "use_cudnn_on_gpu": {"b": true}, "num_args": {"i": "1"}, "epsilon": {"f": 0.0}, "padding": {"s": "RVhQTElDSVQ="}, "fused_ops": {"list": {"s": ["Qmlhc0FkZA==", "UmVsdQ=="]}}}}, {"name": "saved_resnet_50_model/resnet50v2/conv3_block3_3_conv/BiasAdd", "op": "_FusedConv2D", "input": ["saved_resnet_50_model/resnet50v2/conv3_block3_2_relu/Relu", "conv3_block3_3_conv/kernel", "conv3_block3_3_conv/bias"], "device": "/device:CPU:0", "attr": {"dilations": {"list": {"i": ["1", "1", "1", "1"]}}, "T": {"type": "DT_FLOAT"}, "data_format": {"s": "TkhXQw=="}, "strides": {"list": {"i": ["1", "1", "1", "1"]}}, "explicit_paddings": {"list": {}}, "use_cudnn_on_gpu": {"b": true}, "num_args": {"i": "1"}, "epsilon": {"f": 0.0}, "padding": {"s": "VkFMSUQ="}, "fused_ops": {"list": {"s": ["Qmlhc0FkZA=="]}}}}, {"name": "saved_resnet_50_model/resnet50v2/conv3_block3_out/add", "op": "AddV2", "input": ["saved_resnet_50_model/resnet50v2/conv3_block2_out/add", "saved_resnet_50_model/resnet50v2/conv3_block3_3_conv/BiasAdd"], "attr": {"T": {"type": "DT_FLOAT"}}}, {"name": "saved_resnet_50_model/resnet50v2/max_pooling2d_1/MaxPool", "op": "MaxPool", "input": ["saved_resnet_50_model/resnet50v2/conv3_block3_out/add"], "attr": {"ksize": {"list": {"i": ["1", "1", "1", "1"]}}, "padding": {"s": "VkFMSUQ="}, "T": {"type": "DT_FLOAT"}, "strides": {"list": {"i": ["1", "2", "2", "1"]}}, "data_format": {"s": "TkhXQw=="}}}, {"name": "saved_resnet_50_model/resnet50v2/conv3_block4_preact_bn/FusedBatchNormV3/Mul", "op": "Mul", "input": ["saved_resnet_50_model/resnet50v2/conv3_block3_out/add", "saved_resnet_50_model/resnet50v2/conv3_block4_preact_bn/FusedBatchNormV3/Scaled"], "attr": {"T": {"type": "DT_FLOAT"}}}, {"name": "saved_resnet_50_model/resnet50v2/conv3_block4_preact_bn/FusedBatchNormV3", "op": "Add", "input": ["saved_resnet_50_model/resnet50v2/conv3_block4_preact_bn/FusedBatchNormV3/Mul", "saved_resnet_50_model/resnet50v2/conv3_block4_preact_bn/FusedBatchNormV3/Offset"], "attr": {"T": {"type": "DT_FLOAT"}}}, {"name": "saved_resnet_50_model/resnet50v2/conv3_block4_preact_relu/Relu", "op": "Relu", "input": ["saved_resnet_50_model/resnet50v2/conv3_block4_preact_bn/FusedBatchNormV3"], "attr": {"T": {"type": "DT_FLOAT"}}}, {"name": "saved_resnet_50_model/resnet50v2/conv3_block4_1_relu/Relu", "op": "_FusedConv2D", "input": ["saved_resnet_50_model/resnet50v2/conv3_block4_preact_relu/Relu", "saved_resnet_50_model/resnet50v2/conv3_block4_1_conv/Conv2D_weights", "saved_resnet_50_model/resnet50v2/conv3_block4_1_conv/Conv2D_bn_offset"], "device": "/device:CPU:0", "attr": {"dilations": {"list": {"i": ["1", "1", "1", "1"]}}, "T": {"type": "DT_FLOAT"}, "data_format": {"s": "TkhXQw=="}, "strides": {"list": {"i": ["1", "1", "1", "1"]}}, "explicit_paddings": {"list": {}}, "use_cudnn_on_gpu": {"b": true}, "num_args": {"i": "1"}, "epsilon": {"f": 0.0}, "padding": {"s": "VkFMSUQ="}, "fused_ops": {"list": {"s": ["Qmlhc0FkZA==", "UmVsdQ=="]}}}}, {"name": "saved_resnet_50_model/resnet50v2/conv3_block4_2_relu/Relu", "op": "_FusedConv2D", "input": ["saved_resnet_50_model/resnet50v2/conv3_block4_1_relu/Relu", "saved_resnet_50_model/resnet50v2/conv3_block4_2_conv/Conv2D_weights", "saved_resnet_50_model/resnet50v2/conv3_block4_2_conv/Conv2D_bn_offset"], "device": "/device:CPU:0", "attr": {"dilations": {"list": {"i": ["1", "1", "1", "1"]}}, "T": {"type": "DT_FLOAT"}, "data_format": {"s": "TkhXQw=="}, "strides": {"list": {"i": ["1", "2", "2", "1"]}}, "explicit_paddings": {"list": {"i": ["0", "0", "1", "1", "1", "1", "0", "0"]}}, "use_cudnn_on_gpu": {"b": true}, "num_args": {"i": "1"}, "epsilon": {"f": 0.0}, "padding": {"s": "RVhQTElDSVQ="}, "fused_ops": {"list": {"s": ["Qmlhc0FkZA==", "UmVsdQ=="]}}}}, {"name": "saved_resnet_50_model/resnet50v2/conv3_block4_3_conv/BiasAdd", "op": "_FusedConv2D", "input": ["saved_resnet_50_model/resnet50v2/conv3_block4_2_relu/Relu", "conv3_block4_3_conv/kernel", "conv3_block4_3_conv/bias"], "device": "/device:CPU:0", "attr": {"dilations": {"list": {"i": ["1", "1", "1", "1"]}}, "T": {"type": "DT_FLOAT"}, "data_format": {"s": "TkhXQw=="}, "strides": {"list": {"i": ["1", "1", "1", "1"]}}, "explicit_paddings": {"list": {}}, "use_cudnn_on_gpu": {"b": true}, "num_args": {"i": "1"}, "epsilon": {"f": 0.0}, "padding": {"s": "VkFMSUQ="}, "fused_ops": {"list": {"s": ["Qmlhc0FkZA=="]}}}}, {"name": "saved_resnet_50_model/resnet50v2/conv3_block4_out/add", "op": "AddV2", "input": ["saved_resnet_50_model/resnet50v2/conv3_block4_3_conv/BiasAdd", "saved_resnet_50_model/resnet50v2/max_pooling2d_1/MaxPool"], "attr": {"T": {"type": "DT_FLOAT"}}}, {"name": "saved_resnet_50_model/resnet50v2/conv4_block1_preact_bn/FusedBatchNormV3/Mul", "op": "Mul", "input": ["saved_resnet_50_model/resnet50v2/conv3_block4_out/add", "saved_resnet_50_model/resnet50v2/conv4_block1_preact_bn/FusedBatchNormV3/Scaled"], "attr": {"T": {"type": "DT_FLOAT"}}}, {"name": "saved_resnet_50_model/resnet50v2/conv4_block1_preact_bn/FusedBatchNormV3", "op": "Add", "input": ["saved_resnet_50_model/resnet50v2/conv4_block1_preact_bn/FusedBatchNormV3/Mul", "saved_resnet_50_model/resnet50v2/conv4_block1_preact_bn/FusedBatchNormV3/Offset"], "attr": {"T": {"type": "DT_FLOAT"}}}, {"name": "saved_resnet_50_model/resnet50v2/conv4_block1_preact_relu/Relu", "op": "Relu", "input": ["saved_resnet_50_model/resnet50v2/conv4_block1_preact_bn/FusedBatchNormV3"], "attr": {"T": {"type": "DT_FLOAT"}}}, {"name": "saved_resnet_50_model/resnet50v2/conv4_block1_0_conv/BiasAdd", "op": "_FusedConv2D", "input": ["saved_resnet_50_model/resnet50v2/conv4_block1_preact_relu/Relu", "conv4_block1_0_conv/kernel", "conv4_block1_0_conv/bias"], "device": "/device:CPU:0", "attr": {"dilations": {"list": {"i": ["1", "1", "1", "1"]}}, "T": {"type": "DT_FLOAT"}, "data_format": {"s": "TkhXQw=="}, "strides": {"list": {"i": ["1", "1", "1", "1"]}}, "explicit_paddings": {"list": {}}, "use_cudnn_on_gpu": {"b": true}, "num_args": {"i": "1"}, "epsilon": {"f": 0.0}, "padding": {"s": "VkFMSUQ="}, "fused_ops": {"list": {"s": ["Qmlhc0FkZA=="]}}}}, {"name": "saved_resnet_50_model/resnet50v2/conv4_block1_1_relu/Relu", "op": "_FusedConv2D", "input": ["saved_resnet_50_model/resnet50v2/conv4_block1_preact_relu/Relu", "saved_resnet_50_model/resnet50v2/conv4_block1_1_conv/Conv2D_weights", "saved_resnet_50_model/resnet50v2/conv4_block1_1_conv/Conv2D_bn_offset"], "device": "/device:CPU:0", "attr": {"dilations": {"list": {"i": ["1", "1", "1", "1"]}}, "T": {"type": "DT_FLOAT"}, "data_format": {"s": "TkhXQw=="}, "strides": {"list": {"i": ["1", "1", "1", "1"]}}, "explicit_paddings": {"list": {}}, "use_cudnn_on_gpu": {"b": true}, "num_args": {"i": "1"}, "epsilon": {"f": 0.0}, "padding": {"s": "VkFMSUQ="}, "fused_ops": {"list": {"s": ["Qmlhc0FkZA==", "UmVsdQ=="]}}}}, {"name": "saved_resnet_50_model/resnet50v2/conv4_block1_2_relu/Relu", "op": "_FusedConv2D", "input": ["saved_resnet_50_model/resnet50v2/conv4_block1_1_relu/Relu", "saved_resnet_50_model/resnet50v2/conv4_block1_2_conv/Conv2D_weights", "saved_resnet_50_model/resnet50v2/conv4_block1_2_conv/Conv2D_bn_offset"], "device": "/device:CPU:0", "attr": {"dilations": {"list": {"i": ["1", "1", "1", "1"]}}, "T": {"type": "DT_FLOAT"}, "data_format": {"s": "TkhXQw=="}, "strides": {"list": {"i": ["1", "1", "1", "1"]}}, "explicit_paddings": {"list": {"i": ["0", "0", "1", "1", "1", "1", "0", "0"]}}, "use_cudnn_on_gpu": {"b": true}, "num_args": {"i": "1"}, "epsilon": {"f": 0.0}, "padding": {"s": "RVhQTElDSVQ="}, "fused_ops": {"list": {"s": ["Qmlhc0FkZA==", "UmVsdQ=="]}}}}, {"name": "saved_resnet_50_model/resnet50v2/conv4_block1_3_conv/BiasAdd", "op": "_FusedConv2D", "input": ["saved_resnet_50_model/resnet50v2/conv4_block1_2_relu/Relu", "conv4_block1_3_conv/kernel", "conv4_block1_3_conv/bias"], "device": "/device:CPU:0", "attr": {"dilations": {"list": {"i": ["1", "1", "1", "1"]}}, "T": {"type": "DT_FLOAT"}, "data_format": {"s": "TkhXQw=="}, "strides": {"list": {"i": ["1", "1", "1", "1"]}}, "explicit_paddings": {"list": {}}, "use_cudnn_on_gpu": {"b": true}, "num_args": {"i": "1"}, "epsilon": {"f": 0.0}, "padding": {"s": "VkFMSUQ="}, "fused_ops": {"list": {"s": ["Qmlhc0FkZA=="]}}}}, {"name": "saved_resnet_50_model/resnet50v2/conv4_block1_out/add", "op": "AddV2", "input": ["saved_resnet_50_model/resnet50v2/conv4_block1_0_conv/BiasAdd", "saved_resnet_50_model/resnet50v2/conv4_block1_3_conv/BiasAdd"], "attr": {"T": {"type": "DT_FLOAT"}}}, {"name": "saved_resnet_50_model/resnet50v2/conv4_block2_preact_bn/FusedBatchNormV3/Mul", "op": "Mul", "input": ["saved_resnet_50_model/resnet50v2/conv4_block1_out/add", "saved_resnet_50_model/resnet50v2/conv4_block2_preact_bn/FusedBatchNormV3/Scaled"], "attr": {"T": {"type": "DT_FLOAT"}}}, {"name": "saved_resnet_50_model/resnet50v2/conv4_block2_preact_bn/FusedBatchNormV3", "op": "Add", "input": ["saved_resnet_50_model/resnet50v2/conv4_block2_preact_bn/FusedBatchNormV3/Mul", "saved_resnet_50_model/resnet50v2/conv4_block2_preact_bn/FusedBatchNormV3/Offset"], "attr": {"T": {"type": "DT_FLOAT"}}}, {"name": "saved_resnet_50_model/resnet50v2/conv4_block2_preact_relu/Relu", "op": "Relu", "input": ["saved_resnet_50_model/resnet50v2/conv4_block2_preact_bn/FusedBatchNormV3"], "attr": {"T": {"type": "DT_FLOAT"}}}, {"name": "saved_resnet_50_model/resnet50v2/conv4_block2_1_relu/Relu", "op": "_FusedConv2D", "input": ["saved_resnet_50_model/resnet50v2/conv4_block2_preact_relu/Relu", "saved_resnet_50_model/resnet50v2/conv4_block2_1_conv/Conv2D_weights", "saved_resnet_50_model/resnet50v2/conv4_block2_1_conv/Conv2D_bn_offset"], "device": "/device:CPU:0", "attr": {"dilations": {"list": {"i": ["1", "1", "1", "1"]}}, "T": {"type": "DT_FLOAT"}, "data_format": {"s": "TkhXQw=="}, "strides": {"list": {"i": ["1", "1", "1", "1"]}}, "explicit_paddings": {"list": {}}, "use_cudnn_on_gpu": {"b": true}, "num_args": {"i": "1"}, "epsilon": {"f": 0.0}, "padding": {"s": "VkFMSUQ="}, "fused_ops": {"list": {"s": ["Qmlhc0FkZA==", "UmVsdQ=="]}}}}, {"name": "saved_resnet_50_model/resnet50v2/conv4_block2_2_relu/Relu", "op": "_FusedConv2D", "input": ["saved_resnet_50_model/resnet50v2/conv4_block2_1_relu/Relu", "saved_resnet_50_model/resnet50v2/conv4_block2_2_conv/Conv2D_weights", "saved_resnet_50_model/resnet50v2/conv4_block2_2_conv/Conv2D_bn_offset"], "device": "/device:CPU:0", "attr": {"dilations": {"list": {"i": ["1", "1", "1", "1"]}}, "T": {"type": "DT_FLOAT"}, "data_format": {"s": "TkhXQw=="}, "strides": {"list": {"i": ["1", "1", "1", "1"]}}, "explicit_paddings": {"list": {"i": ["0", "0", "1", "1", "1", "1", "0", "0"]}}, "use_cudnn_on_gpu": {"b": true}, "num_args": {"i": "1"}, "epsilon": {"f": 0.0}, "padding": {"s": "RVhQTElDSVQ="}, "fused_ops": {"list": {"s": ["Qmlhc0FkZA==", "UmVsdQ=="]}}}}, {"name": "saved_resnet_50_model/resnet50v2/conv4_block2_3_conv/BiasAdd", "op": "_FusedConv2D", "input": ["saved_resnet_50_model/resnet50v2/conv4_block2_2_relu/Relu", "conv4_block2_3_conv/kernel", "conv4_block2_3_conv/bias"], "device": "/device:CPU:0", "attr": {"dilations": {"list": {"i": ["1", "1", "1", "1"]}}, "T": {"type": "DT_FLOAT"}, "data_format": {"s": "TkhXQw=="}, "strides": {"list": {"i": ["1", "1", "1", "1"]}}, "explicit_paddings": {"list": {}}, "use_cudnn_on_gpu": {"b": true}, "num_args": {"i": "1"}, "epsilon": {"f": 0.0}, "padding": {"s": "VkFMSUQ="}, "fused_ops": {"list": {"s": ["Qmlhc0FkZA=="]}}}}, {"name": "saved_resnet_50_model/resnet50v2/conv4_block2_out/add", "op": "AddV2", "input": ["saved_resnet_50_model/resnet50v2/conv4_block1_out/add", "saved_resnet_50_model/resnet50v2/conv4_block2_3_conv/BiasAdd"], "attr": {"T": {"type": "DT_FLOAT"}}}, {"name": "saved_resnet_50_model/resnet50v2/conv4_block3_preact_bn/FusedBatchNormV3/Mul", "op": "Mul", "input": ["saved_resnet_50_model/resnet50v2/conv4_block2_out/add", "saved_resnet_50_model/resnet50v2/conv4_block3_preact_bn/FusedBatchNormV3/Scaled"], "attr": {"T": {"type": "DT_FLOAT"}}}, {"name": "saved_resnet_50_model/resnet50v2/conv4_block3_preact_bn/FusedBatchNormV3", "op": "Add", "input": ["saved_resnet_50_model/resnet50v2/conv4_block3_preact_bn/FusedBatchNormV3/Mul", "saved_resnet_50_model/resnet50v2/conv4_block3_preact_bn/FusedBatchNormV3/Offset"], "attr": {"T": {"type": "DT_FLOAT"}}}, {"name": "saved_resnet_50_model/resnet50v2/conv4_block3_preact_relu/Relu", "op": "Relu", "input": ["saved_resnet_50_model/resnet50v2/conv4_block3_preact_bn/FusedBatchNormV3"], "attr": {"T": {"type": "DT_FLOAT"}}}, {"name": "saved_resnet_50_model/resnet50v2/conv4_block3_1_relu/Relu", "op": "_FusedConv2D", "input": ["saved_resnet_50_model/resnet50v2/conv4_block3_preact_relu/Relu", "saved_resnet_50_model/resnet50v2/conv4_block3_1_conv/Conv2D_weights", "saved_resnet_50_model/resnet50v2/conv4_block3_1_conv/Conv2D_bn_offset"], "device": "/device:CPU:0", "attr": {"dilations": {"list": {"i": ["1", "1", "1", "1"]}}, "T": {"type": "DT_FLOAT"}, "data_format": {"s": "TkhXQw=="}, "strides": {"list": {"i": ["1", "1", "1", "1"]}}, "explicit_paddings": {"list": {}}, "use_cudnn_on_gpu": {"b": true}, "num_args": {"i": "1"}, "epsilon": {"f": 0.0}, "padding": {"s": "VkFMSUQ="}, "fused_ops": {"list": {"s": ["Qmlhc0FkZA==", "UmVsdQ=="]}}}}, {"name": "saved_resnet_50_model/resnet50v2/conv4_block3_2_relu/Relu", "op": "_FusedConv2D", "input": ["saved_resnet_50_model/resnet50v2/conv4_block3_1_relu/Relu", "saved_resnet_50_model/resnet50v2/conv4_block3_2_conv/Conv2D_weights", "saved_resnet_50_model/resnet50v2/conv4_block3_2_conv/Conv2D_bn_offset"], "device": "/device:CPU:0", "attr": {"dilations": {"list": {"i": ["1", "1", "1", "1"]}}, "T": {"type": "DT_FLOAT"}, "data_format": {"s": "TkhXQw=="}, "strides": {"list": {"i": ["1", "1", "1", "1"]}}, "explicit_paddings": {"list": {"i": ["0", "0", "1", "1", "1", "1", "0", "0"]}}, "use_cudnn_on_gpu": {"b": true}, "num_args": {"i": "1"}, "epsilon": {"f": 0.0}, "padding": {"s": "RVhQTElDSVQ="}, "fused_ops": {"list": {"s": ["Qmlhc0FkZA==", "UmVsdQ=="]}}}}, {"name": "saved_resnet_50_model/resnet50v2/conv4_block3_3_conv/BiasAdd", "op": "_FusedConv2D", "input": ["saved_resnet_50_model/resnet50v2/conv4_block3_2_relu/Relu", "conv4_block3_3_conv/kernel", "conv4_block3_3_conv/bias"], "device": "/device:CPU:0", "attr": {"dilations": {"list": {"i": ["1", "1", "1", "1"]}}, "T": {"type": "DT_FLOAT"}, "data_format": {"s": "TkhXQw=="}, "strides": {"list": {"i": ["1", "1", "1", "1"]}}, "explicit_paddings": {"list": {}}, "use_cudnn_on_gpu": {"b": true}, "num_args": {"i": "1"}, "epsilon": {"f": 0.0}, "padding": {"s": "VkFMSUQ="}, "fused_ops": {"list": {"s": ["Qmlhc0FkZA=="]}}}}, {"name": "saved_resnet_50_model/resnet50v2/conv4_block3_out/add", "op": "AddV2", "input": ["saved_resnet_50_model/resnet50v2/conv4_block2_out/add", "saved_resnet_50_model/resnet50v2/conv4_block3_3_conv/BiasAdd"], "attr": {"T": {"type": "DT_FLOAT"}}}, {"name": "saved_resnet_50_model/resnet50v2/conv4_block4_preact_bn/FusedBatchNormV3/Mul", "op": "Mul", "input": ["saved_resnet_50_model/resnet50v2/conv4_block3_out/add", "saved_resnet_50_model/resnet50v2/conv4_block4_preact_bn/FusedBatchNormV3/Scaled"], "attr": {"T": {"type": "DT_FLOAT"}}}, {"name": "saved_resnet_50_model/resnet50v2/conv4_block4_preact_bn/FusedBatchNormV3", "op": "Add", "input": ["saved_resnet_50_model/resnet50v2/conv4_block4_preact_bn/FusedBatchNormV3/Mul", "saved_resnet_50_model/resnet50v2/conv4_block4_preact_bn/FusedBatchNormV3/Offset"], "attr": {"T": {"type": "DT_FLOAT"}}}, {"name": "saved_resnet_50_model/resnet50v2/conv4_block4_preact_relu/Relu", "op": "Relu", "input": ["saved_resnet_50_model/resnet50v2/conv4_block4_preact_bn/FusedBatchNormV3"], "attr": {"T": {"type": "DT_FLOAT"}}}, {"name": "saved_resnet_50_model/resnet50v2/conv4_block4_1_relu/Relu", "op": "_FusedConv2D", "input": ["saved_resnet_50_model/resnet50v2/conv4_block4_preact_relu/Relu", "saved_resnet_50_model/resnet50v2/conv4_block4_1_conv/Conv2D_weights", "saved_resnet_50_model/resnet50v2/conv4_block4_1_conv/Conv2D_bn_offset"], "device": "/device:CPU:0", "attr": {"dilations": {"list": {"i": ["1", "1", "1", "1"]}}, "T": {"type": "DT_FLOAT"}, "data_format": {"s": "TkhXQw=="}, "strides": {"list": {"i": ["1", "1", "1", "1"]}}, "explicit_paddings": {"list": {}}, "use_cudnn_on_gpu": {"b": true}, "num_args": {"i": "1"}, "epsilon": {"f": 0.0}, "padding": {"s": "VkFMSUQ="}, "fused_ops": {"list": {"s": ["Qmlhc0FkZA==", "UmVsdQ=="]}}}}, {"name": "saved_resnet_50_model/resnet50v2/conv4_block4_2_relu/Relu", "op": "_FusedConv2D", "input": ["saved_resnet_50_model/resnet50v2/conv4_block4_1_relu/Relu", "saved_resnet_50_model/resnet50v2/conv4_block4_2_conv/Conv2D_weights", "saved_resnet_50_model/resnet50v2/conv4_block4_2_conv/Conv2D_bn_offset"], "device": "/device:CPU:0", "attr": {"dilations": {"list": {"i": ["1", "1", "1", "1"]}}, "T": {"type": "DT_FLOAT"}, "data_format": {"s": "TkhXQw=="}, "strides": {"list": {"i": ["1", "1", "1", "1"]}}, "explicit_paddings": {"list": {"i": ["0", "0", "1", "1", "1", "1", "0", "0"]}}, "use_cudnn_on_gpu": {"b": true}, "num_args": {"i": "1"}, "epsilon": {"f": 0.0}, "padding": {"s": "RVhQTElDSVQ="}, "fused_ops": {"list": {"s": ["Qmlhc0FkZA==", "UmVsdQ=="]}}}}, {"name": "saved_resnet_50_model/resnet50v2/conv4_block4_3_conv/BiasAdd", "op": "_FusedConv2D", "input": ["saved_resnet_50_model/resnet50v2/conv4_block4_2_relu/Relu", "conv4_block4_3_conv/kernel", "conv4_block4_3_conv/bias"], "device": "/device:CPU:0", "attr": {"dilations": {"list": {"i": ["1", "1", "1", "1"]}}, "T": {"type": "DT_FLOAT"}, "data_format": {"s": "TkhXQw=="}, "strides": {"list": {"i": ["1", "1", "1", "1"]}}, "explicit_paddings": {"list": {}}, "use_cudnn_on_gpu": {"b": true}, "num_args": {"i": "1"}, "epsilon": {"f": 0.0}, "padding": {"s": "VkFMSUQ="}, "fused_ops": {"list": {"s": ["Qmlhc0FkZA=="]}}}}, {"name": "saved_resnet_50_model/resnet50v2/conv4_block4_out/add", "op": "AddV2", "input": ["saved_resnet_50_model/resnet50v2/conv4_block3_out/add", "saved_resnet_50_model/resnet50v2/conv4_block4_3_conv/BiasAdd"], "attr": {"T": {"type": "DT_FLOAT"}}}, {"name": "saved_resnet_50_model/resnet50v2/conv4_block5_preact_bn/FusedBatchNormV3/Mul", "op": "Mul", "input": ["saved_resnet_50_model/resnet50v2/conv4_block4_out/add", "saved_resnet_50_model/resnet50v2/conv4_block5_preact_bn/FusedBatchNormV3/Scaled"], "attr": {"T": {"type": "DT_FLOAT"}}}, {"name": "saved_resnet_50_model/resnet50v2/conv4_block5_preact_bn/FusedBatchNormV3", "op": "Add", "input": ["saved_resnet_50_model/resnet50v2/conv4_block5_preact_bn/FusedBatchNormV3/Mul", "saved_resnet_50_model/resnet50v2/conv4_block5_preact_bn/FusedBatchNormV3/Offset"], "attr": {"T": {"type": "DT_FLOAT"}}}, {"name": "saved_resnet_50_model/resnet50v2/conv4_block5_preact_relu/Relu", "op": "Relu", "input": ["saved_resnet_50_model/resnet50v2/conv4_block5_preact_bn/FusedBatchNormV3"], "attr": {"T": {"type": "DT_FLOAT"}}}, {"name": "saved_resnet_50_model/resnet50v2/conv4_block5_1_relu/Relu", "op": "_FusedConv2D", "input": ["saved_resnet_50_model/resnet50v2/conv4_block5_preact_relu/Relu", "saved_resnet_50_model/resnet50v2/conv4_block5_1_conv/Conv2D_weights", "saved_resnet_50_model/resnet50v2/conv4_block5_1_conv/Conv2D_bn_offset"], "device": "/device:CPU:0", "attr": {"dilations": {"list": {"i": ["1", "1", "1", "1"]}}, "T": {"type": "DT_FLOAT"}, "data_format": {"s": "TkhXQw=="}, "strides": {"list": {"i": ["1", "1", "1", "1"]}}, "explicit_paddings": {"list": {}}, "use_cudnn_on_gpu": {"b": true}, "num_args": {"i": "1"}, "epsilon": {"f": 0.0}, "padding": {"s": "VkFMSUQ="}, "fused_ops": {"list": {"s": ["Qmlhc0FkZA==", "UmVsdQ=="]}}}}, {"name": "saved_resnet_50_model/resnet50v2/conv4_block5_2_relu/Relu", "op": "_FusedConv2D", "input": ["saved_resnet_50_model/resnet50v2/conv4_block5_1_relu/Relu", "saved_resnet_50_model/resnet50v2/conv4_block5_2_conv/Conv2D_weights", "saved_resnet_50_model/resnet50v2/conv4_block5_2_conv/Conv2D_bn_offset"], "device": "/device:CPU:0", "attr": {"dilations": {"list": {"i": ["1", "1", "1", "1"]}}, "T": {"type": "DT_FLOAT"}, "data_format": {"s": "TkhXQw=="}, "strides": {"list": {"i": ["1", "1", "1", "1"]}}, "explicit_paddings": {"list": {"i": ["0", "0", "1", "1", "1", "1", "0", "0"]}}, "use_cudnn_on_gpu": {"b": true}, "num_args": {"i": "1"}, "epsilon": {"f": 0.0}, "padding": {"s": "RVhQTElDSVQ="}, "fused_ops": {"list": {"s": ["Qmlhc0FkZA==", "UmVsdQ=="]}}}}, {"name": "saved_resnet_50_model/resnet50v2/conv4_block5_3_conv/BiasAdd", "op": "_FusedConv2D", "input": ["saved_resnet_50_model/resnet50v2/conv4_block5_2_relu/Relu", "conv4_block5_3_conv/kernel", "conv4_block5_3_conv/bias"], "device": "/device:CPU:0", "attr": {"dilations": {"list": {"i": ["1", "1", "1", "1"]}}, "T": {"type": "DT_FLOAT"}, "data_format": {"s": "TkhXQw=="}, "strides": {"list": {"i": ["1", "1", "1", "1"]}}, "explicit_paddings": {"list": {}}, "use_cudnn_on_gpu": {"b": true}, "num_args": {"i": "1"}, "epsilon": {"f": 0.0}, "padding": {"s": "VkFMSUQ="}, "fused_ops": {"list": {"s": ["Qmlhc0FkZA=="]}}}}, {"name": "saved_resnet_50_model/resnet50v2/conv4_block5_out/add", "op": "AddV2", "input": ["saved_resnet_50_model/resnet50v2/conv4_block4_out/add", "saved_resnet_50_model/resnet50v2/conv4_block5_3_conv/BiasAdd"], "attr": {"T": {"type": "DT_FLOAT"}}}, {"name": "saved_resnet_50_model/resnet50v2/conv4_block6_preact_bn/FusedBatchNormV3/Mul", "op": "Mul", "input": ["saved_resnet_50_model/resnet50v2/conv4_block5_out/add", "saved_resnet_50_model/resnet50v2/conv4_block6_preact_bn/FusedBatchNormV3/Scaled"], "attr": {"T": {"type": "DT_FLOAT"}}}, {"name": "saved_resnet_50_model/resnet50v2/max_pooling2d_2/MaxPool", "op": "MaxPool", "input": ["saved_resnet_50_model/resnet50v2/conv4_block5_out/add"], "attr": {"ksize": {"list": {"i": ["1", "1", "1", "1"]}}, "padding": {"s": "VkFMSUQ="}, "T": {"type": "DT_FLOAT"}, "strides": {"list": {"i": ["1", "2", "2", "1"]}}, "data_format": {"s": "TkhXQw=="}}}, {"name": "saved_resnet_50_model/resnet50v2/conv4_block6_preact_bn/FusedBatchNormV3", "op": "Add", "input": ["saved_resnet_50_model/resnet50v2/conv4_block6_preact_bn/FusedBatchNormV3/Mul", "saved_resnet_50_model/resnet50v2/conv4_block6_preact_bn/FusedBatchNormV3/Offset"], "attr": {"T": {"type": "DT_FLOAT"}}}, {"name": "saved_resnet_50_model/resnet50v2/conv4_block6_preact_relu/Relu", "op": "Relu", "input": ["saved_resnet_50_model/resnet50v2/conv4_block6_preact_bn/FusedBatchNormV3"], "attr": {"T": {"type": "DT_FLOAT"}}}, {"name": "saved_resnet_50_model/resnet50v2/conv4_block6_1_relu/Relu", "op": "_FusedConv2D", "input": ["saved_resnet_50_model/resnet50v2/conv4_block6_preact_relu/Relu", "saved_resnet_50_model/resnet50v2/conv4_block6_1_conv/Conv2D_weights", "saved_resnet_50_model/resnet50v2/conv4_block6_1_conv/Conv2D_bn_offset"], "device": "/device:CPU:0", "attr": {"dilations": {"list": {"i": ["1", "1", "1", "1"]}}, "T": {"type": "DT_FLOAT"}, "data_format": {"s": "TkhXQw=="}, "strides": {"list": {"i": ["1", "1", "1", "1"]}}, "explicit_paddings": {"list": {}}, "use_cudnn_on_gpu": {"b": true}, "num_args": {"i": "1"}, "epsilon": {"f": 0.0}, "padding": {"s": "VkFMSUQ="}, "fused_ops": {"list": {"s": ["Qmlhc0FkZA==", "UmVsdQ=="]}}}}, {"name": "saved_resnet_50_model/resnet50v2/conv4_block6_2_relu/Relu", "op": "_FusedConv2D", "input": ["saved_resnet_50_model/resnet50v2/conv4_block6_1_relu/Relu", "saved_resnet_50_model/resnet50v2/conv4_block6_2_conv/Conv2D_weights", "saved_resnet_50_model/resnet50v2/conv4_block6_2_conv/Conv2D_bn_offset"], "device": "/device:CPU:0", "attr": {"dilations": {"list": {"i": ["1", "1", "1", "1"]}}, "T": {"type": "DT_FLOAT"}, "data_format": {"s": "TkhXQw=="}, "strides": {"list": {"i": ["1", "2", "2", "1"]}}, "explicit_paddings": {"list": {"i": ["0", "0", "1", "1", "1", "1", "0", "0"]}}, "use_cudnn_on_gpu": {"b": true}, "num_args": {"i": "1"}, "epsilon": {"f": 0.0}, "padding": {"s": "RVhQTElDSVQ="}, "fused_ops": {"list": {"s": ["Qmlhc0FkZA==", "UmVsdQ=="]}}}}, {"name": "saved_resnet_50_model/resnet50v2/conv4_block6_3_conv/BiasAdd", "op": "_FusedConv2D", "input": ["saved_resnet_50_model/resnet50v2/conv4_block6_2_relu/Relu", "conv4_block6_3_conv/kernel", "conv4_block6_3_conv/bias"], "device": "/device:CPU:0", "attr": {"dilations": {"list": {"i": ["1", "1", "1", "1"]}}, "T": {"type": "DT_FLOAT"}, "data_format": {"s": "TkhXQw=="}, "strides": {"list": {"i": ["1", "1", "1", "1"]}}, "explicit_paddings": {"list": {}}, "use_cudnn_on_gpu": {"b": true}, "num_args": {"i": "1"}, "epsilon": {"f": 0.0}, "padding": {"s": "VkFMSUQ="}, "fused_ops": {"list": {"s": ["Qmlhc0FkZA=="]}}}}, {"name": "saved_resnet_50_model/resnet50v2/conv4_block6_out/add", "op": "AddV2", "input": ["saved_resnet_50_model/resnet50v2/conv4_block6_3_conv/BiasAdd", "saved_resnet_50_model/resnet50v2/max_pooling2d_2/MaxPool"], "attr": {"T": {"type": "DT_FLOAT"}}}, {"name": "saved_resnet_50_model/resnet50v2/conv5_block1_preact_bn/FusedBatchNormV3/Mul", "op": "Mul", "input": ["saved_resnet_50_model/resnet50v2/conv4_block6_out/add", "saved_resnet_50_model/resnet50v2/conv5_block1_preact_bn/FusedBatchNormV3/Scaled"], "attr": {"T": {"type": "DT_FLOAT"}}}, {"name": "saved_resnet_50_model/resnet50v2/conv5_block1_preact_bn/FusedBatchNormV3", "op": "Add", "input": ["saved_resnet_50_model/resnet50v2/conv5_block1_preact_bn/FusedBatchNormV3/Mul", "saved_resnet_50_model/resnet50v2/conv5_block1_preact_bn/FusedBatchNormV3/Offset"], "attr": {"T": {"type": "DT_FLOAT"}}}, {"name": "saved_resnet_50_model/resnet50v2/conv5_block1_preact_relu/Relu", "op": "Relu", "input": ["saved_resnet_50_model/resnet50v2/conv5_block1_preact_bn/FusedBatchNormV3"], "attr": {"T": {"type": "DT_FLOAT"}}}, {"name": "saved_resnet_50_model/resnet50v2/conv5_block1_0_conv/BiasAdd", "op": "_FusedConv2D", "input": ["saved_resnet_50_model/resnet50v2/conv5_block1_preact_relu/Relu", "conv5_block1_0_conv/kernel", "conv5_block1_0_conv/bias"], "device": "/device:CPU:0", "attr": {"dilations": {"list": {"i": ["1", "1", "1", "1"]}}, "T": {"type": "DT_FLOAT"}, "data_format": {"s": "TkhXQw=="}, "strides": {"list": {"i": ["1", "1", "1", "1"]}}, "explicit_paddings": {"list": {}}, "use_cudnn_on_gpu": {"b": true}, "num_args": {"i": "1"}, "epsilon": {"f": 0.0}, "padding": {"s": "VkFMSUQ="}, "fused_ops": {"list": {"s": ["Qmlhc0FkZA=="]}}}}, {"name": "saved_resnet_50_model/resnet50v2/conv5_block1_1_relu/Relu", "op": "_FusedConv2D", "input": ["saved_resnet_50_model/resnet50v2/conv5_block1_preact_relu/Relu", "saved_resnet_50_model/resnet50v2/conv5_block1_1_conv/Conv2D_weights", "saved_resnet_50_model/resnet50v2/conv5_block1_1_conv/Conv2D_bn_offset"], "device": "/device:CPU:0", "attr": {"dilations": {"list": {"i": ["1", "1", "1", "1"]}}, "T": {"type": "DT_FLOAT"}, "data_format": {"s": "TkhXQw=="}, "strides": {"list": {"i": ["1", "1", "1", "1"]}}, "explicit_paddings": {"list": {}}, "use_cudnn_on_gpu": {"b": true}, "num_args": {"i": "1"}, "epsilon": {"f": 0.0}, "padding": {"s": "VkFMSUQ="}, "fused_ops": {"list": {"s": ["Qmlhc0FkZA==", "UmVsdQ=="]}}}}, {"name": "saved_resnet_50_model/resnet50v2/conv5_block1_2_relu/Relu", "op": "_FusedConv2D", "input": ["saved_resnet_50_model/resnet50v2/conv5_block1_1_relu/Relu", "saved_resnet_50_model/resnet50v2/conv5_block1_2_conv/Conv2D_weights", "saved_resnet_50_model/resnet50v2/conv5_block1_2_conv/Conv2D_bn_offset"], "device": "/device:CPU:0", "attr": {"dilations": {"list": {"i": ["1", "1", "1", "1"]}}, "T": {"type": "DT_FLOAT"}, "data_format": {"s": "TkhXQw=="}, "strides": {"list": {"i": ["1", "1", "1", "1"]}}, "explicit_paddings": {"list": {"i": ["0", "0", "1", "1", "1", "1", "0", "0"]}}, "use_cudnn_on_gpu": {"b": true}, "num_args": {"i": "1"}, "epsilon": {"f": 0.0}, "padding": {"s": "RVhQTElDSVQ="}, "fused_ops": {"list": {"s": ["Qmlhc0FkZA==", "UmVsdQ=="]}}}}, {"name": "saved_resnet_50_model/resnet50v2/conv5_block1_3_conv/BiasAdd", "op": "_FusedConv2D", "input": ["saved_resnet_50_model/resnet50v2/conv5_block1_2_relu/Relu", "conv5_block1_3_conv/kernel", "conv5_block1_3_conv/bias"], "device": "/device:CPU:0", "attr": {"dilations": {"list": {"i": ["1", "1", "1", "1"]}}, "T": {"type": "DT_FLOAT"}, "data_format": {"s": "TkhXQw=="}, "strides": {"list": {"i": ["1", "1", "1", "1"]}}, "explicit_paddings": {"list": {}}, "use_cudnn_on_gpu": {"b": true}, "num_args": {"i": "1"}, "epsilon": {"f": 0.0}, "padding": {"s": "VkFMSUQ="}, "fused_ops": {"list": {"s": ["Qmlhc0FkZA=="]}}}}, {"name": "saved_resnet_50_model/resnet50v2/conv5_block1_out/add", "op": "AddV2", "input": ["saved_resnet_50_model/resnet50v2/conv5_block1_0_conv/BiasAdd", "saved_resnet_50_model/resnet50v2/conv5_block1_3_conv/BiasAdd"], "attr": {"T": {"type": "DT_FLOAT"}}}, {"name": "saved_resnet_50_model/resnet50v2/conv5_block2_preact_bn/FusedBatchNormV3/Mul", "op": "Mul", "input": ["saved_resnet_50_model/resnet50v2/conv5_block1_out/add", "saved_resnet_50_model/resnet50v2/conv5_block2_preact_bn/FusedBatchNormV3/Scaled"], "attr": {"T": {"type": "DT_FLOAT"}}}, {"name": "saved_resnet_50_model/resnet50v2/conv5_block2_preact_bn/FusedBatchNormV3", "op": "Add", "input": ["saved_resnet_50_model/resnet50v2/conv5_block2_preact_bn/FusedBatchNormV3/Mul", "saved_resnet_50_model/resnet50v2/conv5_block2_preact_bn/FusedBatchNormV3/Offset"], "attr": {"T": {"type": "DT_FLOAT"}}}, {"name": "saved_resnet_50_model/resnet50v2/conv5_block2_preact_relu/Relu", "op": "Relu", "input": ["saved_resnet_50_model/resnet50v2/conv5_block2_preact_bn/FusedBatchNormV3"], "attr": {"T": {"type": "DT_FLOAT"}}}, {"name": "saved_resnet_50_model/resnet50v2/conv5_block2_1_relu/Relu", "op": "_FusedConv2D", "input": ["saved_resnet_50_model/resnet50v2/conv5_block2_preact_relu/Relu", "saved_resnet_50_model/resnet50v2/conv5_block2_1_conv/Conv2D_weights", "saved_resnet_50_model/resnet50v2/conv5_block2_1_conv/Conv2D_bn_offset"], "device": "/device:CPU:0", "attr": {"dilations": {"list": {"i": ["1", "1", "1", "1"]}}, "T": {"type": "DT_FLOAT"}, "data_format": {"s": "TkhXQw=="}, "strides": {"list": {"i": ["1", "1", "1", "1"]}}, "explicit_paddings": {"list": {}}, "use_cudnn_on_gpu": {"b": true}, "num_args": {"i": "1"}, "epsilon": {"f": 0.0}, "padding": {"s": "VkFMSUQ="}, "fused_ops": {"list": {"s": ["Qmlhc0FkZA==", "UmVsdQ=="]}}}}, {"name": "saved_resnet_50_model/resnet50v2/conv5_block2_2_relu/Relu", "op": "_FusedConv2D", "input": ["saved_resnet_50_model/resnet50v2/conv5_block2_1_relu/Relu", "saved_resnet_50_model/resnet50v2/conv5_block2_2_conv/Conv2D_weights", "saved_resnet_50_model/resnet50v2/conv5_block2_2_conv/Conv2D_bn_offset"], "device": "/device:CPU:0", "attr": {"dilations": {"list": {"i": ["1", "1", "1", "1"]}}, "T": {"type": "DT_FLOAT"}, "data_format": {"s": "TkhXQw=="}, "strides": {"list": {"i": ["1", "1", "1", "1"]}}, "explicit_paddings": {"list": {"i": ["0", "0", "1", "1", "1", "1", "0", "0"]}}, "use_cudnn_on_gpu": {"b": true}, "num_args": {"i": "1"}, "epsilon": {"f": 0.0}, "padding": {"s": "RVhQTElDSVQ="}, "fused_ops": {"list": {"s": ["Qmlhc0FkZA==", "UmVsdQ=="]}}}}, {"name": "saved_resnet_50_model/resnet50v2/conv5_block2_3_conv/BiasAdd", "op": "_FusedConv2D", "input": ["saved_resnet_50_model/resnet50v2/conv5_block2_2_relu/Relu", "conv5_block2_3_conv/kernel", "conv5_block2_3_conv/bias"], "device": "/device:CPU:0", "attr": {"dilations": {"list": {"i": ["1", "1", "1", "1"]}}, "T": {"type": "DT_FLOAT"}, "data_format": {"s": "TkhXQw=="}, "strides": {"list": {"i": ["1", "1", "1", "1"]}}, "explicit_paddings": {"list": {}}, "use_cudnn_on_gpu": {"b": true}, "num_args": {"i": "1"}, "epsilon": {"f": 0.0}, "padding": {"s": "VkFMSUQ="}, "fused_ops": {"list": {"s": ["Qmlhc0FkZA=="]}}}}, {"name": "saved_resnet_50_model/resnet50v2/conv5_block2_out/add", "op": "AddV2", "input": ["saved_resnet_50_model/resnet50v2/conv5_block1_out/add", "saved_resnet_50_model/resnet50v2/conv5_block2_3_conv/BiasAdd"], "attr": {"T": {"type": "DT_FLOAT"}}}, {"name": "saved_resnet_50_model/resnet50v2/conv5_block3_preact_bn/FusedBatchNormV3/Mul", "op": "Mul", "input": ["saved_resnet_50_model/resnet50v2/conv5_block2_out/add", "saved_resnet_50_model/resnet50v2/conv5_block3_preact_bn/FusedBatchNormV3/Scaled"], "attr": {"T": {"type": "DT_FLOAT"}}}, {"name": "saved_resnet_50_model/resnet50v2/conv5_block3_preact_bn/FusedBatchNormV3", "op": "Add", "input": ["saved_resnet_50_model/resnet50v2/conv5_block3_preact_bn/FusedBatchNormV3/Mul", "saved_resnet_50_model/resnet50v2/conv5_block3_preact_bn/FusedBatchNormV3/Offset"], "attr": {"T": {"type": "DT_FLOAT"}}}, {"name": "saved_resnet_50_model/resnet50v2/conv5_block3_preact_relu/Relu", "op": "Relu", "input": ["saved_resnet_50_model/resnet50v2/conv5_block3_preact_bn/FusedBatchNormV3"], "attr": {"T": {"type": "DT_FLOAT"}}}, {"name": "saved_resnet_50_model/resnet50v2/conv5_block3_1_relu/Relu", "op": "_FusedConv2D", "input": ["saved_resnet_50_model/resnet50v2/conv5_block3_preact_relu/Relu", "saved_resnet_50_model/resnet50v2/conv5_block3_1_conv/Conv2D_weights", "saved_resnet_50_model/resnet50v2/conv5_block3_1_conv/Conv2D_bn_offset"], "device": "/device:CPU:0", "attr": {"dilations": {"list": {"i": ["1", "1", "1", "1"]}}, "T": {"type": "DT_FLOAT"}, "data_format": {"s": "TkhXQw=="}, "strides": {"list": {"i": ["1", "1", "1", "1"]}}, "explicit_paddings": {"list": {}}, "use_cudnn_on_gpu": {"b": true}, "num_args": {"i": "1"}, "epsilon": {"f": 0.0}, "padding": {"s": "VkFMSUQ="}, "fused_ops": {"list": {"s": ["Qmlhc0FkZA==", "UmVsdQ=="]}}}}, {"name": "saved_resnet_50_model/resnet50v2/conv5_block3_2_relu/Relu", "op": "_FusedConv2D", "input": ["saved_resnet_50_model/resnet50v2/conv5_block3_1_relu/Relu", "saved_resnet_50_model/resnet50v2/conv5_block3_2_conv/Conv2D_weights", "saved_resnet_50_model/resnet50v2/conv5_block3_2_conv/Conv2D_bn_offset"], "device": "/device:CPU:0", "attr": {"dilations": {"list": {"i": ["1", "1", "1", "1"]}}, "T": {"type": "DT_FLOAT"}, "data_format": {"s": "TkhXQw=="}, "strides": {"list": {"i": ["1", "1", "1", "1"]}}, "explicit_paddings": {"list": {"i": ["0", "0", "1", "1", "1", "1", "0", "0"]}}, "use_cudnn_on_gpu": {"b": true}, "num_args": {"i": "1"}, "epsilon": {"f": 0.0}, "padding": {"s": "RVhQTElDSVQ="}, "fused_ops": {"list": {"s": ["Qmlhc0FkZA==", "UmVsdQ=="]}}}}, {"name": "saved_resnet_50_model/resnet50v2/conv5_block3_3_conv/BiasAdd", "op": "_FusedConv2D", "input": ["saved_resnet_50_model/resnet50v2/conv5_block3_2_relu/Relu", "conv5_block3_3_conv/kernel", "conv5_block3_3_conv/bias"], "device": "/device:CPU:0", "attr": {"dilations": {"list": {"i": ["1", "1", "1", "1"]}}, "T": {"type": "DT_FLOAT"}, "data_format": {"s": "TkhXQw=="}, "strides": {"list": {"i": ["1", "1", "1", "1"]}}, "explicit_paddings": {"list": {}}, "use_cudnn_on_gpu": {"b": true}, "num_args": {"i": "1"}, "epsilon": {"f": 0.0}, "padding": {"s": "VkFMSUQ="}, "fused_ops": {"list": {"s": ["Qmlhc0FkZA=="]}}}}, {"name": "saved_resnet_50_model/resnet50v2/conv5_block3_out/add", "op": "AddV2", "input": ["saved_resnet_50_model/resnet50v2/conv5_block2_out/add", "saved_resnet_50_model/resnet50v2/conv5_block3_3_conv/BiasAdd"], "attr": {"T": {"type": "DT_FLOAT"}}}, {"name": "saved_resnet_50_model/resnet50v2/post_bn/FusedBatchNormV3/Mul", "op": "Mul", "input": ["saved_resnet_50_model/resnet50v2/conv5_block3_out/add", "saved_resnet_50_model/resnet50v2/post_bn/FusedBatchNormV3/Scaled"], "attr": {"T": {"type": "DT_FLOAT"}}}, {"name": "saved_resnet_50_model/resnet50v2/post_bn/FusedBatchNormV3", "op": "Add", "input": ["saved_resnet_50_model/resnet50v2/post_bn/FusedBatchNormV3/Mul", "saved_resnet_50_model/resnet50v2/post_bn/FusedBatchNormV3/Offset"], "attr": {"T": {"type": "DT_FLOAT"}}}, {"name": "saved_resnet_50_model/resnet50v2/post_relu/Relu", "op": "Relu", "input": ["saved_resnet_50_model/resnet50v2/post_bn/FusedBatchNormV3"], "attr": {"T": {"type": "DT_FLOAT"}}}, {"name": "saved_resnet_50_model/resnet50v2/avg_pool/Mean", "op": "Mean", "input": ["saved_resnet_50_model/resnet50v2/post_relu/Relu", "saved_resnet_50_model/resnet50v2/avg_pool/Mean/reduction_indices"], "attr": {"keep_dims": {"b": false}, "Tidx": {"type": "DT_INT32"}, "T": {"type": "DT_FLOAT"}}}, {"name": "fe4d1316-672f-4c72-832b-ffdd80bf4fc7.6e7b0a42-81f8-46db-ab95-2704e01478a5/dense/Elu", "op": "_FusedMatMul", "input": ["saved_resnet_50_model/resnet50v2/avg_pool/Mean", "dense/kernel", "dense/bias"], "device": "/device:CPU:0", "attr": {"transpose_b": {"b": false}, "T": {"type": "DT_FLOAT"}, "num_args": {"i": "1"}, "epsilon": {"f": 0.0}, "fused_ops": {"list": {"s": ["Qmlhc0FkZA==", "RWx1"]}}, "transpose_a": {"b": false}}}, {"name": "fe4d1316-672f-4c72-832b-ffdd80bf4fc7.6e7b0a42-81f8-46db-ab95-2704e01478a5/dense_1/Elu", "op": "_FusedMatMul", "input": ["fe4d1316-672f-4c72-832b-ffdd80bf4fc7.6e7b0a42-81f8-46db-ab95-2704e01478a5/dense/Elu", "dense_1/kernel", "dense_1/bias"], "device": "/device:CPU:0", "attr": {"transpose_b": {"b": false}, "T": {"type": "DT_FLOAT"}, "num_args": {"i": "1"}, "epsilon": {"f": 0.0}, "fused_ops": {"list": {"s": ["Qmlhc0FkZA==", "RWx1"]}}, "transpose_a": {"b": false}}}, {"name": "fe4d1316-672f-4c72-832b-ffdd80bf4fc7.6e7b0a42-81f8-46db-ab95-2704e01478a5/dense_2/BiasAdd", "op": "_FusedMatMul", "input": ["fe4d1316-672f-4c72-832b-ffdd80bf4fc7.6e7b0a42-81f8-46db-ab95-2704e01478a5/dense_1/Elu", "dense_2/kernel", "dense_2/bias"], "device": "/device:CPU:0", "attr": {"transpose_b": {"b": false}, "T": {"type": "DT_FLOAT"}, "num_args": {"i": "1"}, "epsilon": {"f": 0.0}, "fused_ops": {"list": {"s": ["Qmlhc0FkZA=="]}}, "transpose_a": {"b": false}}}, {"name": "fe4d1316-672f-4c72-832b-ffdd80bf4fc7.6e7b0a42-81f8-46db-ab95-2704e01478a5/dense_2/Softmax", "op": "Softmax", "input": ["fe4d1316-672f-4c72-832b-ffdd80bf4fc7.6e7b0a42-81f8-46db-ab95-2704e01478a5/dense_2/BiasAdd"], "attr": {"T": {"type": "DT_FLOAT"}}}], "library": {}, "versions": {}}, "modelInitializer": {"versions": {}}, "weightsManifest": [{"paths": ["group1-shard1of25.bin", "group1-shard2of25.bin", "group1-shard3of25.bin", "group1-shard4of25.bin", "group1-shard5of25.bin", "group1-shard6of25.bin", "group1-shard7of25.bin", "group1-shard8of25.bin", "group1-shard9of25.bin", "group1-shard10of25.bin", "group1-shard11of25.bin", "group1-shard12of25.bin", "group1-shard13of25.bin", "group1-shard14of25.bin", "group1-shard15of25.bin", "group1-shard16of25.bin", "group1-shard17of25.bin", "group1-shard18of25.bin", "group1-shard19of25.bin", "group1-shard20of25.bin", "group1-shard21of25.bin", "group1-shard22of25.bin", "group1-shard23of25.bin", "group1-shard24of25.bin", "group1-shard25of25.bin"], "weights": [{"name": "conv1_conv/kernel", "shape": [7, 7, 3, 64], "dtype": "float32"}, {"name": "dense/bias", "shape": [1024], "dtype": "float32"}, {"name": "conv1_conv/bias", "shape": [64], "dtype": "float32"}, {"name": "dense_1/kernel", "shape": [1024, 512], "dtype": "float32"}, {"name": "conv5_block3_3_conv/kernel", "shape": [1, 1, 512, 2048], "dtype": "float32"}, {"name": "dense_2/bias", "shape": [2], "dtype": "float32"}, {"name": "conv5_block3_3_conv/bias", "shape": [2048], "dtype": "float32"}, {"name": "dense_1/bias", "shape": [512], "dtype": "float32"}, {"name": "conv2_block1_0_conv/kernel", "shape": [1, 1, 64, 256], "dtype": "float32"}, {"name": "conv2_block1_0_conv/bias", "shape": [256], "dtype": "float32"}, {"name": "conv2_block1_3_conv/kernel", "shape": [1, 1, 64, 256], "dtype": "float32"}, {"name": "conv2_block1_3_conv/bias", "shape": [256], "dtype": "float32"}, {"name": "saved_resnet_50_model/tf_op_layer_Mul/Mul/y", "shape": [], "dtype": "float32"}, {"name": "saved_resnet_50_model/tf_op_layer_Sub/Sub/y", "shape": [], "dtype": "float32"}, {"name": "saved_resnet_50_model/resnet50v2/conv5_block3_preact_bn/FusedBatchNormV3/Offset", "shape": [2048], "dtype": "float32"}, {"name": "saved_resnet_50_model/resnet50v2/pool1_pad/Pad/paddings", "shape": [4, 2], "dtype": "int32"}, {"name": "conv2_block2_3_conv/kernel", "shape": [1, 1, 64, 256], "dtype": "float32"}, {"name": "conv2_block2_3_conv/bias", "shape": [256], "dtype": "float32"}, {"name": "conv2_block3_3_conv/kernel", "shape": [1, 1, 64, 256], "dtype": "float32"}, {"name": "conv2_block3_3_conv/bias", "shape": [256], "dtype": "float32"}, {"name": "conv3_block1_0_conv/kernel", "shape": [1, 1, 256, 512], "dtype": "float32"}, {"name": "conv3_block1_0_conv/bias", "shape": [512], "dtype": "float32"}, {"name": "conv3_block1_3_conv/kernel", "shape": [1, 1, 128, 512], "dtype": "float32"}, {"name": "conv3_block1_3_conv/bias", "shape": [512], "dtype": "float32"}, {"name": "conv3_block2_3_conv/kernel", "shape": [1, 1, 128, 512], "dtype": "float32"}, {"name": "conv3_block2_3_conv/bias", "shape": [512], "dtype": "float32"}, {"name": "conv3_block3_3_conv/kernel", "shape": [1, 1, 128, 512], "dtype": "float32"}, {"name": "conv3_block3_3_conv/bias", "shape": [512], "dtype": "float32"}, {"name": "conv3_block4_3_conv/kernel", "shape": [1, 1, 128, 512], "dtype": "float32"}, {"name": "conv3_block4_3_conv/bias", "shape": [512], "dtype": "float32"}, {"name": "conv4_block1_0_conv/kernel", "shape": [1, 1, 512, 1024], "dtype": "float32"}, {"name": "conv4_block1_0_conv/bias", "shape": [1024], "dtype": "float32"}, {"name": "conv4_block1_3_conv/kernel", "shape": [1, 1, 256, 1024], "dtype": "float32"}, {"name": "conv4_block1_3_conv/bias", "shape": [1024], "dtype": "float32"}, {"name": "conv4_block2_3_conv/kernel", "shape": [1, 1, 256, 1024], "dtype": "float32"}, {"name": "conv4_block2_3_conv/bias", "shape": [1024], "dtype": "float32"}, {"name": "conv4_block3_3_conv/kernel", "shape": [1, 1, 256, 1024], "dtype": "float32"}, {"name": "conv4_block3_3_conv/bias", "shape": [1024], "dtype": "float32"}, {"name": "conv4_block4_3_conv/kernel", "shape": [1, 1, 256, 1024], "dtype": "float32"}, {"name": "conv4_block4_3_conv/bias", "shape": [1024], "dtype": "float32"}, {"name": "conv4_block5_3_conv/kernel", "shape": [1, 1, 256, 1024], "dtype": "float32"}, {"name": "conv4_block5_3_conv/bias", "shape": [1024], "dtype": "float32"}, {"name": "conv4_block6_3_conv/kernel", "shape": [1, 1, 256, 1024], "dtype": "float32"}, {"name": "conv4_block6_3_conv/bias", "shape": [1024], "dtype": "float32"}, {"name": "conv5_block1_0_conv/kernel", "shape": [1, 1, 1024, 2048], "dtype": "float32"}, {"name": "conv5_block1_0_conv/bias", "shape": [2048], "dtype": "float32"}, {"name": "conv5_block1_3_conv/kernel", "shape": [1, 1, 512, 2048], "dtype": "float32"}, {"name": "conv5_block1_3_conv/bias", "shape": [2048], "dtype": "float32"}, {"name": "conv5_block2_3_conv/kernel", "shape": [1, 1, 512, 2048], "dtype": "float32"}, {"name": "conv5_block2_3_conv/bias", "shape": [2048], "dtype": "float32"}, {"name": "saved_resnet_50_model/resnet50v2/avg_pool/Mean/reduction_indices", "shape": [2], "dtype": "int32"}, {"name": "dense_2/kernel", "shape": [512, 2], "dtype": "float32"}, {"name": "dense/kernel", "shape": [2048, 1024], "dtype": "float32"}, {"name": "saved_resnet_50_model/resnet50v2/conv2_block1_1_conv/Conv2D_weights", "shape": [1, 1, 64, 64], "dtype": "float32"}, {"name": "saved_resnet_50_model/resnet50v2/conv2_block1_1_conv/Conv2D_bn_offset", "shape": [64], "dtype": "float32"}, {"name": "saved_resnet_50_model/resnet50v2/conv5_block2_preact_bn/FusedBatchNormV3/Scaled", "shape": [2048], "dtype": "float32"}, {"name": "saved_resnet_50_model/resnet50v2/conv2_block1_2_conv/Conv2D_weights", "shape": [3, 3, 64, 64], "dtype": "float32"}, {"name": "saved_resnet_50_model/resnet50v2/conv2_block1_2_conv/Conv2D_bn_offset", "shape": [64], "dtype": "float32"}, {"name": "saved_resnet_50_model/resnet50v2/conv5_block2_preact_bn/FusedBatchNormV3/Offset", "shape": [2048], "dtype": "float32"}, {"name": "saved_resnet_50_model/resnet50v2/conv2_block2_1_conv/Conv2D_weights", "shape": [1, 1, 256, 64], "dtype": "float32"}, {"name": "saved_resnet_50_model/resnet50v2/conv2_block2_1_conv/Conv2D_bn_offset", "shape": [64], "dtype": "float32"}, {"name": "saved_resnet_50_model/resnet50v2/conv2_block2_2_conv/Conv2D_weights", "shape": [3, 3, 64, 64], "dtype": "float32"}, {"name": "saved_resnet_50_model/resnet50v2/conv5_block1_preact_bn/FusedBatchNormV3/Scaled", "shape": [1024], "dtype": "float32"}, {"name": "saved_resnet_50_model/resnet50v2/conv2_block2_2_conv/Conv2D_bn_offset", "shape": [64], "dtype": "float32"}, {"name": "saved_resnet_50_model/resnet50v2/conv2_block3_1_conv/Conv2D_weights", "shape": [1, 1, 256, 64], "dtype": "float32"}, {"name": "saved_resnet_50_model/resnet50v2/conv5_block1_preact_bn/FusedBatchNormV3/Offset", "shape": [1024], "dtype": "float32"}, {"name": "saved_resnet_50_model/resnet50v2/conv2_block3_1_conv/Conv2D_bn_offset", "shape": [64], "dtype": "float32"}, {"name": "saved_resnet_50_model/resnet50v2/conv2_block3_2_conv/Conv2D_weights", "shape": [3, 3, 64, 64], "dtype": "float32"}, {"name": "saved_resnet_50_model/resnet50v2/conv2_block3_2_conv/Conv2D_bn_offset", "shape": [64], "dtype": "float32"}, {"name": "saved_resnet_50_model/resnet50v2/conv4_block6_preact_bn/FusedBatchNormV3/Scaled", "shape": [1024], "dtype": "float32"}, {"name": "saved_resnet_50_model/resnet50v2/conv3_block1_1_conv/Conv2D_weights", "shape": [1, 1, 256, 128], "dtype": "float32"}, {"name": "saved_resnet_50_model/resnet50v2/conv4_block6_preact_bn/FusedBatchNormV3/Offset", "shape": [1024], "dtype": "float32"}, {"name": "saved_resnet_50_model/resnet50v2/conv3_block1_1_conv/Conv2D_bn_offset", "shape": [128], "dtype": "float32"}, {"name": "saved_resnet_50_model/resnet50v2/conv3_block1_2_conv/Conv2D_weights", "shape": [3, 3, 128, 128], "dtype": "float32"}, {"name": "saved_resnet_50_model/resnet50v2/conv3_block1_2_conv/Conv2D_bn_offset", "shape": [128], "dtype": "float32"}, {"name": "saved_resnet_50_model/resnet50v2/conv4_block5_preact_bn/FusedBatchNormV3/Scaled", "shape": [1024], "dtype": "float32"}, {"name": "saved_resnet_50_model/resnet50v2/conv3_block2_1_conv/Conv2D_weights", "shape": [1, 1, 512, 128], "dtype": "float32"}, {"name": "saved_resnet_50_model/resnet50v2/conv3_block2_1_conv/Conv2D_bn_offset", "shape": [128], "dtype": "float32"}, {"name": "saved_resnet_50_model/resnet50v2/conv4_block5_preact_bn/FusedBatchNormV3/Offset", "shape": [1024], "dtype": "float32"}, {"name": "saved_resnet_50_model/resnet50v2/conv3_block2_2_conv/Conv2D_weights", "shape": [3, 3, 128, 128], "dtype": "float32"}, {"name": "saved_resnet_50_model/resnet50v2/conv3_block2_2_conv/Conv2D_bn_offset", "shape": [128], "dtype": "float32"}, {"name": "saved_resnet_50_model/resnet50v2/conv4_block4_preact_bn/FusedBatchNormV3/Scaled", "shape": [1024], "dtype": "float32"}, {"name": "saved_resnet_50_model/resnet50v2/conv3_block3_1_conv/Conv2D_weights", "shape": [1, 1, 512, 128], "dtype": "float32"}, {"name": "saved_resnet_50_model/resnet50v2/conv3_block3_1_conv/Conv2D_bn_offset", "shape": [128], "dtype": "float32"}, {"name": "saved_resnet_50_model/resnet50v2/conv4_block4_preact_bn/FusedBatchNormV3/Offset", "shape": [1024], "dtype": "float32"}, {"name": "saved_resnet_50_model/resnet50v2/conv3_block3_2_conv/Conv2D_weights", "shape": [3, 3, 128, 128], "dtype": "float32"}, {"name": "saved_resnet_50_model/resnet50v2/conv3_block3_2_conv/Conv2D_bn_offset", "shape": [128], "dtype": "float32"}, {"name": "saved_resnet_50_model/resnet50v2/conv3_block4_1_conv/Conv2D_weights", "shape": [1, 1, 512, 128], "dtype": "float32"}, {"name": "saved_resnet_50_model/resnet50v2/conv4_block3_preact_bn/FusedBatchNormV3/Scaled", "shape": [1024], "dtype": "float32"}, {"name": "saved_resnet_50_model/resnet50v2/conv3_block4_1_conv/Conv2D_bn_offset", "shape": [128], "dtype": "float32"}, {"name": "saved_resnet_50_model/resnet50v2/conv3_block4_2_conv/Conv2D_weights", "shape": [3, 3, 128, 128], "dtype": "float32"}, {"name": "saved_resnet_50_model/resnet50v2/conv4_block3_preact_bn/FusedBatchNormV3/Offset", "shape": [1024], "dtype": "float32"}, {"name": "saved_resnet_50_model/resnet50v2/conv3_block4_2_conv/Conv2D_bn_offset", "shape": [128], "dtype": "float32"}, {"name": "saved_resnet_50_model/resnet50v2/conv4_block1_1_conv/Conv2D_weights", "shape": [1, 1, 512, 256], "dtype": "float32"}, {"name": "saved_resnet_50_model/resnet50v2/conv4_block2_preact_bn/FusedBatchNormV3/Scaled", "shape": [1024], "dtype": "float32"}, {"name": "saved_resnet_50_model/resnet50v2/conv4_block1_1_conv/Conv2D_bn_offset", "shape": [256], "dtype": "float32"}, {"name": "saved_resnet_50_model/resnet50v2/conv4_block1_2_conv/Conv2D_weights", "shape": [3, 3, 256, 256], "dtype": "float32"}, {"name": "saved_resnet_50_model/resnet50v2/conv4_block2_preact_bn/FusedBatchNormV3/Offset", "shape": [1024], "dtype": "float32"}, {"name": "saved_resnet_50_model/resnet50v2/conv4_block1_2_conv/Conv2D_bn_offset", "shape": [256], "dtype": "float32"}, {"name": "saved_resnet_50_model/resnet50v2/conv4_block2_1_conv/Conv2D_weights", "shape": [1, 1, 1024, 256], "dtype": "float32"}, {"name": "saved_resnet_50_model/resnet50v2/conv4_block2_1_conv/Conv2D_bn_offset", "shape": [256], "dtype": "float32"}, {"name": "saved_resnet_50_model/resnet50v2/conv4_block1_preact_bn/FusedBatchNormV3/Scaled", "shape": [512], "dtype": "float32"}, {"name": "saved_resnet_50_model/resnet50v2/conv4_block2_2_conv/Conv2D_weights", "shape": [3, 3, 256, 256], "dtype": "float32"}, {"name": "saved_resnet_50_model/resnet50v2/conv4_block2_2_conv/Conv2D_bn_offset", "shape": [256], "dtype": "float32"}, {"name": "saved_resnet_50_model/resnet50v2/conv4_block1_preact_bn/FusedBatchNormV3/Offset", "shape": [512], "dtype": "float32"}, {"name": "saved_resnet_50_model/resnet50v2/conv4_block3_1_conv/Conv2D_weights", "shape": [1, 1, 1024, 256], "dtype": "float32"}, {"name": "saved_resnet_50_model/resnet50v2/conv4_block3_1_conv/Conv2D_bn_offset", "shape": [256], "dtype": "float32"}, {"name": "saved_resnet_50_model/resnet50v2/conv3_block4_preact_bn/FusedBatchNormV3/Scaled", "shape": [512], "dtype": "float32"}, {"name": "saved_resnet_50_model/resnet50v2/conv4_block3_2_conv/Conv2D_weights", "shape": [3, 3, 256, 256], "dtype": "float32"}, {"name": "saved_resnet_50_model/resnet50v2/conv4_block3_2_conv/Conv2D_bn_offset", "shape": [256], "dtype": "float32"}, {"name": "saved_resnet_50_model/resnet50v2/conv3_block4_preact_bn/FusedBatchNormV3/Offset", "shape": [512], "dtype": "float32"}, {"name": "saved_resnet_50_model/resnet50v2/conv4_block4_1_conv/Conv2D_weights", "shape": [1, 1, 1024, 256], "dtype": "float32"}, {"name": "saved_resnet_50_model/resnet50v2/conv4_block4_1_conv/Conv2D_bn_offset", "shape": [256], "dtype": "float32"}, {"name": "saved_resnet_50_model/resnet50v2/conv4_block4_2_conv/Conv2D_weights", "shape": [3, 3, 256, 256], "dtype": "float32"}, {"name": "saved_resnet_50_model/resnet50v2/conv3_block3_preact_bn/FusedBatchNormV3/Scaled", "shape": [512], "dtype": "float32"}, {"name": "saved_resnet_50_model/resnet50v2/conv4_block4_2_conv/Conv2D_bn_offset", "shape": [256], "dtype": "float32"}, {"name": "saved_resnet_50_model/resnet50v2/conv4_block5_1_conv/Conv2D_weights", "shape": [1, 1, 1024, 256], "dtype": "float32"}, {"name": "saved_resnet_50_model/resnet50v2/conv3_block3_preact_bn/FusedBatchNormV3/Offset", "shape": [512], "dtype": "float32"}, {"name": "saved_resnet_50_model/resnet50v2/conv4_block5_1_conv/Conv2D_bn_offset", "shape": [256], "dtype": "float32"}, {"name": "saved_resnet_50_model/resnet50v2/conv4_block5_2_conv/Conv2D_weights", "shape": [3, 3, 256, 256], "dtype": "float32"}, {"name": "saved_resnet_50_model/resnet50v2/conv4_block5_2_conv/Conv2D_bn_offset", "shape": [256], "dtype": "float32"}, {"name": "saved_resnet_50_model/resnet50v2/conv3_block2_preact_bn/FusedBatchNormV3/Scaled", "shape": [512], "dtype": "float32"}, {"name": "saved_resnet_50_model/resnet50v2/conv4_block6_1_conv/Conv2D_weights", "shape": [1, 1, 1024, 256], "dtype": "float32"}, {"name": "saved_resnet_50_model/resnet50v2/conv4_block6_1_conv/Conv2D_bn_offset", "shape": [256], "dtype": "float32"}, {"name": "saved_resnet_50_model/resnet50v2/conv3_block2_preact_bn/FusedBatchNormV3/Offset", "shape": [512], "dtype": "float32"}, {"name": "saved_resnet_50_model/resnet50v2/conv4_block6_2_conv/Conv2D_weights", "shape": [3, 3, 256, 256], "dtype": "float32"}, {"name": "saved_resnet_50_model/resnet50v2/conv4_block6_2_conv/Conv2D_bn_offset", "shape": [256], "dtype": "float32"}, {"name": "saved_resnet_50_model/resnet50v2/conv3_block1_preact_bn/FusedBatchNormV3/Scaled", "shape": [256], "dtype": "float32"}, {"name": "saved_resnet_50_model/resnet50v2/conv5_block1_1_conv/Conv2D_weights", "shape": [1, 1, 1024, 512], "dtype": "float32"}, {"name": "saved_resnet_50_model/resnet50v2/conv5_block1_1_conv/Conv2D_bn_offset", "shape": [512], "dtype": "float32"}, {"name": "saved_resnet_50_model/resnet50v2/conv3_block1_preact_bn/FusedBatchNormV3/Offset", "shape": [256], "dtype": "float32"}, {"name": "saved_resnet_50_model/resnet50v2/conv5_block1_2_conv/Conv2D_weights", "shape": [3, 3, 512, 512], "dtype": "float32"}, {"name": "saved_resnet_50_model/resnet50v2/conv5_block1_2_conv/Conv2D_bn_offset", "shape": [512], "dtype": "float32"}, {"name": "saved_resnet_50_model/resnet50v2/conv2_block3_preact_bn/FusedBatchNormV3/Scaled", "shape": [256], "dtype": "float32"}, {"name": "saved_resnet_50_model/resnet50v2/conv5_block2_1_conv/Conv2D_weights", "shape": [1, 1, 2048, 512], "dtype": "float32"}, {"name": "saved_resnet_50_model/resnet50v2/conv5_block2_1_conv/Conv2D_bn_offset", "shape": [512], "dtype": "float32"}, {"name": "saved_resnet_50_model/resnet50v2/conv2_block3_preact_bn/FusedBatchNormV3/Offset", "shape": [256], "dtype": "float32"}, {"name": "saved_resnet_50_model/resnet50v2/conv5_block2_2_conv/Conv2D_weights", "shape": [3, 3, 512, 512], "dtype": "float32"}, {"name": "saved_resnet_50_model/resnet50v2/conv5_block2_2_conv/Conv2D_bn_offset", "shape": [512], "dtype": "float32"}, {"name": "saved_resnet_50_model/resnet50v2/conv5_block3_1_conv/Conv2D_weights", "shape": [1, 1, 2048, 512], "dtype": "float32"}, {"name": "saved_resnet_50_model/resnet50v2/conv2_block2_preact_bn/FusedBatchNormV3/Scaled", "shape": [256], "dtype": "float32"}, {"name": "saved_resnet_50_model/resnet50v2/conv5_block3_1_conv/Conv2D_bn_offset", "shape": [512], "dtype": "float32"}, {"name": "saved_resnet_50_model/resnet50v2/conv5_block3_2_conv/Conv2D_weights", "shape": [3, 3, 512, 512], "dtype": "float32"}, {"name": "saved_resnet_50_model/resnet50v2/conv2_block2_preact_bn/FusedBatchNormV3/Offset", "shape": [256], "dtype": "float32"}, {"name": "saved_resnet_50_model/resnet50v2/conv5_block3_2_conv/Conv2D_bn_offset", "shape": [512], "dtype": "float32"}, {"name": "saved_resnet_50_model/resnet50v2/conv2_block1_preact_bn/FusedBatchNormV3/Scaled", "shape": [64], "dtype": "float32"}, {"name": "saved_resnet_50_model/resnet50v2/conv2_block1_preact_bn/FusedBatchNormV3/Offset", "shape": [64], "dtype": "float32"}, {"name": "saved_resnet_50_model/resnet50v2/post_bn/FusedBatchNormV3/Scaled", "shape": [2048], "dtype": "float32"}, {"name": "saved_resnet_50_model/resnet50v2/post_bn/FusedBatchNormV3/Offset", "shape": [2048], "dtype": "float32"}, {"name": "saved_resnet_50_model/resnet50v2/conv5_block3_preact_bn/FusedBatchNormV3/Scaled", "shape": [2048], "dtype": "float32"}]}]}